actor.pth (torch_old, 312031 bytes, 14 tensors)

fc1.weight f4 [256, 33]
000000 91 11 59 3e f8 03 c6 3c 54 ec 34 bd 58 2f 61 bd
       0.21198107 0.024171814 -0.044170693 -0.05497679
000010 52 c1 43 bd 2c 9a 2c 3f d3 19 4f 3e a4 20 70 bd
       -0.047791786 0.6742275 0.20224695 -0.05862488
000020 25 1f 2f be 4e 19 ae 3c 2d 03 ad 3d 3c 17 4b 3c
       -0.17101724 0.0212523 0.08447871 0.012395676
000030 4b 38 39 bd 42 a0 2a 3e a6 15 b9 bd 1b aa 41 3d
       -0.0452197 0.16662696 -0.09037332 0.047281366
000040 5e a0 f9 be 8d 5c ec be 03 ac b1 be 86 14 0d be
       -0.48755163 -0.4616436 -0.34701547 -0.1377736
000050 1c 9f a4 bc 46 63 23 b9 98 53 82 bd cf 19 45 3c
       -0.0200954 -0.00015581874 -0.063636005 0.012030079
000060 98 1e d9 3d 2a e4 96 bd a6 93 54 bc 26 a6 56 3e
       0.106015384 -0.073677376 -0.012974655 0.20961818
000070 70 66 25 3d a2 c8 5b 3d 54 11 8c be f4 bc 83 bc
       0.040380895 0.053658135 -0.2735697 -0.01608131
000080 f8 b0 20 be c8 b7 06 be 6e c3 44 3e 7e b5 78 bd
       -0.15692508 -0.13156044 0.19215176 -0.06071996
000090 e5 09 3d be 0f a6 c1 3e 3e 29 62 3d 98 b1 c9 be
       -0.18460806 0.37822005 0.055215113 -0.39393306
0000a0 0a 1f 81 bd bb 2e 09 bd b7 7f 88 ba 94 e2 80 3d
       -0.06304748 -0.03349183 -0.0010414039 0.06293216
0000b0 1d 2b 38 3d 5c 69 95 3c d0 f6 1e 3e 4c 5d e3 bd
       0.04496299 0.018238716 0.15523839 -0.11101779
0000c0 95 90 0a 3e 85 ed 46 3e 48 66 cb 3c 8a d6 45 3e
       0.13531716 0.19426544 0.024829045 0.19320121
0000d0 be 96 a7 be 72 07 8d bc 79 50 23 bd 0e 6c 31 3d
       -0.32732195 -0.017215464 -0.039871667 0.04331594
0000e0 06 5c 00 3d 38 e5 52 3c fc 05 d5 3d ff 05 1c 3e
       0.03133776 0.012872033 0.10401532 0.15236662
0000f0 c3 41 9a 3e c7 5d 4d bc 30 8e c9 bc d3 0f 6c be
       0.30128297 -0.012534565 -0.024603933 -0.23052911
000100 48 4a f2 bc ef 83 c2 3e 7d 3b 2f 3d b0 9f 49 be
       -0.029576436 0.37991282 0.04278134 -0.19689822
000110 44 ea ec bd 76 7e 47 be 73 dc fd 3d 9b 0b 07 3e
       -0.1156812 -0.19481835 0.12395563 0.13188021
000120 b5 f4 e6 3d ab f7 2b bd 24 fd ce bc 63 46 03 3d
       0.11277143 -0.04198424 -0.025267191 0.032049548
000130 cd 34 a2 bc dc c4 a8 3d 85 1a 89 bc e0 f7 64 3d
       -0.019800568 0.08240673 -0.016736278 0.055900455
000140 4f e0 c9 3d 53 b7 1f bc f5 c7 30 3e 53 8d d8 3d
       0.098572366 -0.009748298 0.17263778 0.105738305
000150 bb 3f 30 bf 5c 00 58 bd 9b c7 0f 3d 21 f2 24 bb
       -0.68847245 -0.052734718 0.035102468 -0.0025168734
000160 b0 12 42 3d 59 a6 14 3e 8f f8 85 bc 9d 5a 0b 3d
       0.047381103 0.14516582 -0.016353874 0.034021962
000170 49 f6 eb bc 82 8f f6 3d 7c ef 24 3b 74 50 37 bd
       -0.028803961 0.12039091 0.0025167158 -0.04475446
000180 02 d7 1a be f0 07 ca bc 8b fa 58 bf 6a a8 08 3d
       -0.15121081 -0.024661988 -0.847573 0.033363737
000190 b9 e6 4e bd 4c e6 2c be 21 93 7f 3c 5f 61 74 3e
       -0.050513003 -0.16884726 0.015599043 0.23865269
0001a0 9f bf f4 3e e6 d1 5e bc e5 f6 be bd 7f 4e 97 3d
       0.47802445 -0.013599848 -0.09324435 0.07388019
0001b0 c5 f7 d0 bd 41 9a 01 bd 34 c1 19 3d 55 5d be 3d
       -0.10203508 -0.03164125 0.03753777 0.092951454
0001c0 ac 16 5f 3d f4 99 53 3d 71 52 e5 3d f3 c7 9b be
       0.05446498 0.051660493 0.11197365 -0.30425987
0001d0 f7 0e 42 bd cb b5 49 be 99 b0 11 be 44 42 1f bd
       -0.047377553 -0.19698255 -0.14227523 -0.038881555
0001e0 90 2c d0 bd 20 cd 2b 3c cd b3 9b bd 1a 7b 8b bd
       -0.101647496 0.010485917 -0.07602654 -0.06810589
0001f0 3a 26 8d 3d 34 e4 4a be 5f 94 0c 3e 7a a2 ec 3c
       0.06892057 -0.19813615 0.13728474 0.028886069
000200 98 1e 55 3d ed 55 43 be f2 74 3f bd d4 1a f1 3e
       0.05203113 -0.19075747 -0.046742387 0.4709078
000210 8e 02 88 3e d5 92 56 be cc c9 ef bc 9f 4b 8a 3e
       0.2656445 -0.2095445 -0.029271029 0.2701082
000220 02 c4 08 be ea de 5f be a0 c8 28 3d f4 99 2b bd
       -0.13356021 -0.21862379 0.041206956 -0.041894868
000230 d4 9f 2a 3e c5 4d 19 3e 1c 25 1f 3d 74 aa b0 bc
       0.16662532 0.14971073 0.03885375 -0.021565653
000240 e1 6c f9 bc 6d 04 3b be 9d 88 02 3e e5 7f a8 39
       -0.030447425 -0.18263407 0.12747426 0.00032138746
000250 a4 d6 75 3d d2 82 1e be 02 b0 a0 3d 54 98 96 bc
       0.06001915 -0.15479591 0.07846071 -0.018383183
000260 94 1c c8 bd a6 ab 4d 3e 8f 02 b7 3d 36 a6 de bd
       -0.09771076 0.2008501 0.08936035 -0.10871546
000270 79 ab 25 3d 58 64 01 3d 93 1e 19 3e a9 0f 3c 3e
       0.040446732 0.031589836 0.1495307 0.18365349
000280 0e a0 b4 3d c4 db 87 3c 1b 5e 27 be 9e 80 42 3d
       0.088195905 0.016584285 -0.16344492 0.04748594
000290 44 2c 8e 3e 5f 16 36 3e 4d f1 5d 3e bd 44 2e be
       0.27768147 0.17781971 0.2167408 -0.17018409
0002a0 3c 0d e5 be c4 3f 03 bf f3 4f a2 bc bd f6 82 3e
       -0.4473666 -0.51269174 -0.019813513 0.2557887
0002b0 9f b5 fe bd b5 9a df bd b9 5f 68 3d 5a 53 0a bd
       -0.12436985 -0.1091818 0.056731913 -0.033770896
0002c0 bc 17 4e 3d 49 28 93 bd 91 23 2b 3d ae 43 a1 bd
       0.050315604 -0.07185418 0.041781966 -0.07874237
0002d0 b3 0b 1c be ad 4c dc be e2 6b 66 3d 7b 0d 53 3d
       -0.15238838 -0.4302725 0.05625523 0.051526528
0002e0 65 78 d1 bd 87 f4 cd bc c1 4e 8f 3d 61 11 32 3e
       -0.102280416 -0.025141014 0.06997443 0.17389442
0002f0 93 bc 83 bc 36 86 a8 bc be b6 f0 b9 6b 7b 5c bd
       -0.01608113 -0.02057181 -0.0004591252 -0.053828638
000300 f0 4f b5 3d 76 88 05 3e 60 08 dc bb c5 e1 31 be
       0.088531375 0.13040337 -0.0067148656 -0.1737128
000310 80 6a 76 3a 7f 58 b7 bd 16 0f 98 3d d8 b9 98 bb
       0.0009400025 -0.08952426 0.074247524 -0.004660826
000320 22 74 20 3d 45 f5 cb be 77 03 92 3e 23 d4 95 be
       0.039173253 -0.39835563 0.28518268 -0.2926341
000330 d8 9f a4 bd 2a ee 3f 3c 67 17 ba 3e 49 90 68 3d
       -0.080383 0.011714498 0.3634598 0.056778226
000340 07 14 64 bd 01 1b cf bd 35 86 0c 3e 4e 04 b6 3b
       -0.055683162 -0.101125725 0.13723071 0.0055547124
000350 d9 63 39 3e df 20 53 3e 65 ed d5 3e 5e 25 5e b9
       0.18104495 0.20618008 0.4178268 -0.0002118549
000360 52 36 77 3c f7 2f 39 3e a7 4c ea bd 6d c5 58 3e
       0.015088635 0.18084703 -0.114404015 0.21169062
000370 e6 4a 78 3b 2b df 78 bd 19 e1 49 bd 57 29 db 3d
       0.003788644 -0.060759705 -0.049286935 0.10701244
000380 fd 9c 4c bc 33 61 30 3e 32 73 b1 bc a0 e5 10 bc
       -0.012488601 0.17224579 -0.021661375 -0.008843809
000390 87 04 20 be 6c a3 5e bd 01 01 70 bd 20 ed b1 3d
       -0.15626727 -0.05435507 -0.058594707 0.08687806
0003a0 72 ef af bc 4c 2a c7 3d b5 33 9e be 48 d5 ea 3e
       -0.021476481 0.09724864 -0.30898824 0.45865846
0003b0 9f 99 16 3f e8 ab f7 3e 1f 78 19 3c 7c 1f 82 3c
       0.5882816 0.48373342 0.009367018 0.015884154
0003c0 7b 07 17 3d c8 28 46 3d 3d e2 a2 bc 79 55 69 3d
       0.03687237 0.048378736 -0.01988327 0.05696628
0003d0 de 44 98 bd 78 84 9c bd 1f 3d 47 bd 32 81 81 bc
       -0.074350104 -0.07642454 -0.048642274 -0.015808675
0003e0 33 22 ce bd e3 90 44 be fa 4e ef be 4f 0e 76 bc
       -0.10065117 -0.19195895 -0.46739942 -0.01501806
0003f0 65 3a 81 3c fe 81 20 3d 52 f5 2c bc a9 af 66 bc
       0.015774915 0.03918647 -0.010556536 -0.014079967

fc1.bias f4 [256]
000000 39 fc 80 be 1c 8e 04 be f1 9d 9b bd d4 6d 84 be
       -0.2519243 -0.12944835 -0.07598484 -0.25865042
000010 83 38 96 be 13 d5 5d bd 55 67 8e bd b0 ad e1 bd
       -0.2933999 -0.05415828 -0.06953303 -0.110194564
000020 62 5d 9e be 49 58 17 be 35 f1 d5 bd 92 c5 a7 be
       -0.3093062 -0.14779772 -0.10446397 -0.32767922
000030 4b 4a 92 bd 1a 8e b3 3d 59 34 a8 bc 66 24 4f be
       -0.071430765 0.08767338 -0.020532774 -0.20228729
000040 7b 2d fa 3c 15 e5 66 be 02 fb 99 3c 46 af 31 bc
       0.030539265 -0.22548325 0.018796448 -0.010845011
000050 e1 cb bf 3b 04 d2 f3 bd 38 fa 48 be 4d c8 65 be
       0.0058531617 -0.11905292 -0.19626701 -0.2243969
000060 85 7e f2 bd 2d 2f 57 be f4 8b b5 be 68 0b 77 be
       -0.11840538 -0.2101409 -0.35458338 -0.24125445
000070 dc 00 d3 bd 16 87 0b be 72 ae 93 be 35 3b ae 3d
       -0.10302898 -0.1362575 -0.2884403 0.085073866
000080 d3 ba 3c bd c8 0a 9a bd c7 29 7f 3c 9d d2 90 be
       -0.046076607 -0.075215876 0.015573925 -0.28285685
000090 6f 24 37 be ae 1a 75 be 08 71 a3 be 9f b9 b0 bd
       -0.17884992 -0.23935959 -0.31922174 -0.086291544
0000a0 46 f0 2a 3d 9a 7d 94 bd 9c 4a 20 be f1 9a e2 bd
       0.04173305 -0.07250519 -0.15653461 -0.11064709
0000b0 cd 83 1a be 32 2e fa bd 5e d0 91 be ff fd 2d 3d
       -0.1508934 -0.12215842 -0.28479284 0.042478558
0000c0 95 15 d1 bd 5a e8 3f be d6 47 cb be 77 ab a2 be
       -0.102091946 -0.18740979 -0.39703244 -0.31771442
0000d0 2d 26 a4 be f4 31 19 3d e7 7a 4d be 1b 55 a9 3c
       -0.32060376 0.037401155 -0.20066415 0.020670464
0000e0 3d 19 d5 bd 7c a7 3f be 2e 21 4d 3e 6e 8b d0 be
       -0.104052044 -0.18716234 0.20032188 -0.40731376
0000f0 c2 e9 7f 3d 72 29 82 3d f4 84 18 be 7a 56 cf bd
       0.06247879 0.06355561 -0.14894468 -0.10123916
000100 d9 a8 5f be 32 62 20 be 66 6a a4 be 9f 8e 0d be
       -0.21841754 -0.15662459 -0.32112426 -0.13823937
000110 29 2b 0b be 9f 85 1c be 55 b2 f7 bd 27 de 75 bd
       -0.13590683 -0.15285347 -0.12094561 -0.060026314
000120 b0 0b 30 3d 37 fc ce bd 96 92 a2 bd ff 42 33 be
       0.042979896 -0.101067 -0.07938115 -0.17506026
000130 54 1c 67 be 18 13 94 be bc 66 a0 be 7a 53 06 3d
       -0.225694 -0.28920817 -0.3132838 0.032794453
000140 d7 6a 09 be fb b9 7c be 84 c2 30 3d d9 18 9b bd
       -0.13419662 -0.24680321 0.043154255 -0.07573099
000150 73 b8 30 be 08 d0 92 be df 31 84 be ff 98 02 be
       -0.17257862 -0.2867434 -0.258193 -0.12753676
000160 cb 65 36 be 80 7f 8a be b4 23 ab bd ce 83 14 be
       -0.17812268 -0.270504 -0.08356419 -0.14503404
000170 6d e4 28 be 16 0f 25 be 42 ba 84 bc 4b 85 04 be
       -0.16493388 -0.16119036 -0.016202096 -0.12941472
000180 ea 39 75 bd 38 0a b2 be 78 65 cb 3d 0a fd 96 bd
       -0.059869684 -0.3477342 0.09931463 -0.07372482
000190 26 13 aa be 34 93 b2 bd 98 b3 8b be 6c 37 2c be
       -0.33217734 -0.08719483 -0.27285457 -0.16818017
0001a0 cc 0c 40 be eb 60 8b be c3 b4 49 bd 93 af cd bd
       -0.18754882 -0.2722238 -0.049244653 -0.10043254
0001b0 12 99 9b bd 48 87 a5 be e0 01 cc be 5d 6d 10 be
       -0.07597555 -0.32329774 -0.3984518 -0.14104219
0001c0 f3 0f 73 bc 7a d8 75 be 5e e6 62 be dc bd d8 3d
       -0.014835346 -0.2400836 -0.2215819 0.10583088
0001d0 94 e7 b8 be a1 c4 b1 bd ef e6 aa be e2 e2 80 be
       -0.3611418 -0.08680082 -0.33379313 -0.25173098
0001e0 4c 5f 0b be e7 09 20 be 99 f7 1b 3d 16 49 01 be
       -0.13610572 -0.15628777 0.038077924 -0.12625536
0001f0 fe e4 91 be 5a a1 95 bd af 02 69 be 7f a9 4f be
       -0.2849502 -0.07306166 -0.2275493 -0.20279501
000200 a9 9b 5d bd 1f 28 42 be 9d ab 1b bd 4a 8c 55 be
       -0.054103527 -0.18960617 -0.03800546 -0.20854297
000210 44 72 1b be a3 20 83 be 29 ff b7 be 85 48 0d bd
       -0.15180308 -0.25610837 -0.3593686 -0.03449299
000220 f1 98 80 be c3 d4 db bd 3a e3 03 be e3 32 87 be
       -0.25116685 -0.107339405 -0.12879649 -0.2640601
000230 85 5e ec be 23 1d 64 be 4a a2 af be 19 d2 3e be
       -0.46165863 -0.2227674 -0.34303504 -0.18634833
000240 f5 dd 08 be c8 44 23 be f0 d1 35 be 9e bf 73 be
       -0.1336592 -0.15944207 -0.17755866 -0.23803565
000250 9d 8c 91 3d b7 8c 98 be d3 48 3e be e4 89 a9 be
       0.07106898 -0.29794857 -0.18582468 -0.33113015
000260 54 ed 37 bd 86 48 f2 bc 59 9c 89 3e f9 5a 84 be
       -0.044904068 -0.029575597 0.26877096 -0.25850657
000270 27 b6 37 be a9 b5 18 3d 12 d5 23 be a3 33 95 bd
       -0.1794058 0.03728262 -0.15999249 -0.072852395
000280 94 f4 48 be aa 43 f8 bd 0d fd 38 be 69 1b 67 be
       -0.19624549 -0.12122281 -0.18065281 -0.2256905
000290 aa fe ca be 2f 59 e3 bb c7 15 30 be f6 98 df be
       -0.39647418 -0.0069381217 -0.17195807 -0.43671387
0002a0 94 dc 4c be 79 1e cc bd 3f 77 79 be 18 ed 6f be
       -0.20006019 -0.0996675 -0.24361895 -0.23430288
0002b0 a6 bd 72 be b7 11 a0 bd ca 9a 4c be fc 72 29 be
       -0.23705158 -0.07815879 -0.19980922 -0.1654777
0002c0 71 5c 12 be 65 33 a7 3d b6 ef b9 3d 42 b3 93 be
       -0.14293076 0.081640996 0.09078924 -0.288477
0002d0 c8 19 51 bd 39 cd 6b be 76 b3 8b be b0 ad c6 be
       -0.051049978 -0.23027505 -0.27285355 -0.38804388
0002e0 83 1b 35 be 5a 49 73 be 92 a2 33 be a8 9a 8b be
       -0.17686276 -0.2375845 -0.17542484 -0.2726643
0002f0 ed 92 f4 bd 4d a4 f9 3c ab c3 4d be fa f3 d5 bd
       -0.11942086 0.030473853 -0.20094173 -0.104469255
000300 3c a5 2e be 64 fd 9f be 81 99 1b be ed 18 23 be
       -0.1705522 -0.3124801 -0.15195276 -0.15927477
000310 1a c1 84 bd c9 de a6 bd 4f b7 12 bc bd bb 21 bc
       -0.06482144 -0.08147962 -0.008954837 -0.00987142
000320 2c 5b 10 bd 0c bf 9e be df 00 17 be 21 39 7b bd
       -0.0352432 -0.31005132 -0.14746426 -0.06133378
000330 5d 56 39 3e c5 7a 16 be 9f cc a4 bd 33 f3 ae bd
       0.18099351 -0.1469527 -0.08046841 -0.0854248
000340 81 57 67 be 8e 5c ee bd b2 1c de bd fc 35 f2 bd
       -0.22591974 -0.11638747 -0.10845317 -0.11826703
000350 fa 90 bd bc 4a 60 38 bd 6c 90 3f be fe 4b 20 be
       -0.02314042 -0.045013703 -0.18707436 -0.15653989
000360 f2 85 46 be 8e c6 3a be ce ee 51 be 0c 80 2e be
       -0.19387034 -0.18239805 -0.20501253 -0.17041034
000370 8c 08 09 be ae 2d 3b be 47 a7 b3 be 11 99 c9 bd
       -0.13382167 -0.18279144 -0.3508856 -0.09843648
000380 00 30 c0 be bb 20 2e be 62 92 15 3c b8 fd c3 bd
       -0.3753662 -0.17004673 0.009129139 -0.095698774
000390 dd 22 f7 bd c4 fb 52 be 74 34 8d 3e d6 e0 6e be
       -0.120671965 -0.20603853 0.2757908 -0.23327956
0003a0 52 41 43 3e 29 d9 1d bd 35 77 9d 3d 22 e7 66 be
       0.19067886 -0.03853718 0.076887526 -0.22549108
0003b0 0d 22 31 3d 27 48 bc be 00 87 23 be e2 d5 0d 3d
       0.043245364 -0.36773798 -0.15969467 0.034627803
0003c0 2a c7 fa bd f6 bc 71 bd d4 bd a7 bd 67 ba 04 be
       -0.12245019 -0.059018098 -0.08190504 -0.12961732
0003d0 07 49 41 be 11 0e 68 be 40 7c fc 3d 14 6d 1e be
       -0.18875514 -0.22661616 0.12328386 -0.15471298
0003e0 52 08 7c be 6b 43 d6 bd 12 69 50 bd d3 94 73 be
       -0.24612549 -0.10462078 -0.050881453 -0.2378724
0003f0 1f db 90 bd 65 07 fe bc 88 b8 0c be 06 36 5f be
       -0.07073044 -0.031009385 -0.13742268 -0.21797952

bn1.weight f4 [256]
000000 0a de b7 3e 94 25 1d 3f e3 93 11 3f c9 71 2b 3f
       0.3591159 0.61385465 0.5686628 0.669705
000010 b8 4a df 3e 6a 73 3e 3f 1b ad 8f 3e eb be 2e 3f
       0.43611693 0.7439486 0.28061756 0.6826007
000020 eb 3f 85 3e 50 6b 66 3e 65 dc 30 3f 00 9b bf 3e
       0.26025328 0.22501874 0.69086295 0.37422943
000030 75 3c 08 3f d4 b2 a3 3e af ea 6f 3f e5 76 ea 3e
       0.5321725 0.31972373 0.93717474 0.45793834
000040 d0 5f 28 3f 69 f9 ef 3e 55 37 3c 3f 68 bd 4f 3f
       0.657712 0.46869972 0.7352193 0.81148386
000050 85 59 1f 3f f0 78 83 3e 66 54 0e 3f a2 48 00 3f
       0.6224597 0.25678205 0.5559753 0.5011083
000060 a9 d0 9a 3e 83 fb 34 3f df 8a 0e 3f 9f 8a f2 3e
       0.3023732 0.70696276 0.5568065 0.47371385
000070 82 9f b0 3e 9c cf 43 3f 1a 83 0d 3f a4 b9 26 3f
       0.34496695 0.7648866 0.5527817 0.65127015
000080 dc 45 47 3f ed 12 01 3f 2d da 1e 3f f7 6d 3e 3f
       0.7784097 0.50419503 0.6205166 0.74386543
000090 bb 55 c0 3e c2 0c b9 3e e5 02 d4 3e b1 d7 c0 3e
       0.37565407 0.36142546 0.41408458 0.3766456
0000a0 1f 57 1b 3f 36 bb 2d 3f ca ad 24 3f 8d 7d 2d 3f
       0.6067981 0.67863786 0.6432768 0.677697
0000b0 da b8 27 3f 15 92 c2 3e 19 d5 16 3f 18 f1 37 3f
       0.65516436 0.38002077 0.5891891 0.71852255
0000c0 88 22 26 3f 4b 17 1c 3f b2 97 f7 3e 10 00 23 3f
       0.6489644 0.6097304 0.48357922 0.6367197
0000d0 5a 32 0a 3f 28 76 3f be 12 dc 21 3f 1d 9a 18 3f
       0.5398308 -0.18697417 0.63226426 0.5961016
0000e0 2e 9d 2a 3f 05 20 f3 3e dd 3e f9 3e cc 5a 81 3e
       0.6664609 0.47485366 0.48680773 0.25264585
0000f0 e3 84 d2 3e 44 50 8f 3f ba 1e 2f 3f c6 14 15 3f
       0.4111701 1.119637 0.6840626 0.5823482
000100 6e 31 a4 3e 26 ef b8 3e 0b 6c 91 3e 5e 32 bd 3e
       0.32068962 0.36119956 0.28402743 0.3695249
000110 0a b4 97 3e 6a 8d cf 3e f7 42 b1 3e 54 71 e0 3e
       0.29629546 0.40537578 0.34621403 0.43836462
000120 43 c0 1e 3f 91 d3 05 3f 52 d1 21 3f ae a9 37 3e
       0.6201212 0.5227595 0.6321002 0.17935821
000130 36 bb 0e 3f 7e ce 5a 3f 0f e9 a0 3e 30 2d 5e 3f
       0.5575441 0.8547133 0.3142781 0.867877
000140 68 71 ce 3e df da 7c 3f 33 c7 bf 3e 8a e0 37 3f
       0.40320897 0.9877147 0.37456664 0.71826994
000150 e4 92 66 3f 2c 33 8e 3e d3 b8 8c 3e 2d bf 03 3f
       0.9006789 0.27773416 0.2748476 0.51463586
000160 2c a4 90 3e 61 a5 f3 3e ff 39 39 3f 41 60 de 3e
       0.28250253 0.47587112 0.7235412 0.4343281
000170 e1 d5 15 3f 5c 54 00 3f 04 e3 2a 3f c3 f1 48 3f
       0.5852948 0.5012872 0.6675265 0.784939
000180 77 7a 2d 3f ef 0d bf 3e 57 36 c8 3e 37 25 e6 3e
       0.6776499 0.37315318 0.39103958 0.44950268
000190 08 ca d1 3e 18 88 09 3f 09 6d ba 3e b9 85 28 3f
       0.4097445 0.5372329 0.36411312 0.65829045
0001a0 4c dd d6 3e a9 07 aa 3e a3 cc 9a 3e 4c b8 49 3f
       0.4196571 0.3320897 0.3023425 0.7879684
0001b0 89 97 7e 3f 5b ab 02 3f 11 ff 00 3f 17 66 1a 3f
       0.99449974 0.5104272 0.503892 0.60312027
0001c0 9a 82 0c 3f 02 aa ab 3e d7 71 11 3f d2 e3 32 3f
       0.5488678 0.33528143 0.5681433 0.69878876
0001d0 3a b0 d3 3e 3c da 28 3f d2 aa 90 3e a2 ea c3 3e
       0.41345388 0.65958 0.28255326 0.38264948
0001e0 7f 42 db 3e f8 25 c4 3e a5 df c9 3e 30 45 98 3e
       0.4282417 0.38310218 0.3942844 0.29740286
0001f0 a2 48 da 3e 24 29 17 3f 76 02 e4 3e 78 9c 46 3f
       0.4263354 0.5904715 0.44533128 0.775825
000200 b1 4e 19 3f 70 28 01 3f fb 85 22 3f dd 89 27 3f
       0.598857 0.5045233 0.6348569 0.6544474
000210 07 8c 0b 3f 1a b4 f3 3e 15 ff 99 3e 5b ab a9 3e
       0.5451054 0.47598344 0.30077425 0.33138546
000220 a9 dc e3 3e 1d 54 ee 3e 88 89 d1 3e fc 23 f7 3e
       0.44504288 0.46548548 0.4092524 0.4826964
000230 4b e9 72 3e f1 e6 26 3f e6 5e 09 3f 5a 37 8b 3e
       0.23721807 0.6519614 0.5366043 0.27190667
000240 58 32 22 3f 5e de 8f 3e 52 d4 68 3f 28 ed bd 3e
       0.6335807 0.2809934 0.90948975 0.37094998
000250 00 b0 11 3f 71 d0 23 3f 9e 49 56 3f 2e ad 0c 3f
       0.5690918 0.6398993 0.8370608 0.5495175
000260 8f 72 26 3f 8d ae 3c 3f ca 81 2c 3f de 83 03 3f
       0.6501855 0.73703843 0.6738554 0.5137309
000270 df c5 ff 3e 9b 44 35 3f ed e2 8c 3e 91 c8 3f 3f
       0.4995565 0.7080781 0.2751688 0.74915415
000280 22 c4 01 3f d8 2d 1a 3f e8 26 14 3f 45 60 19 3f
       0.506899 0.602262 0.57871866 0.5991252
000290 b5 78 6e 3e 64 a7 30 3f 4a c7 e3 3e 24 9d c8 3e
       0.23288234 0.6900542 0.44487983 0.3918239
0002a0 14 9b 67 3f 93 a5 9f 3e 07 a4 ba 3e 6f de 9a 3e
       0.90471005 0.3118101 0.36453268 0.30247828
0002b0 58 cb 09 3f 12 93 bd 3e f4 96 c0 3e 0d 0d 9a 3e
       0.538259 0.37026268 0.37615168 0.30088082
0002c0 d7 c4 35 3f 7e da 37 3f af 2b 01 3f 6d ba e0 3e
       0.7100348 0.7181777 0.5045728 0.43892232
0002d0 4d f1 2d 3f 2a 22 0b 3f 68 48 14 3f af 6b 5e 3e
       0.6794632 0.54349005 0.57922983 0.21720766
0002e0 a6 09 e3 3e 92 6e a6 3e 05 73 05 3f b1 4e 3b 3f
       0.443433 0.32506233 0.5212863 0.7316695
0002f0 4b 5d 0b 3f ca 54 06 3f 33 4d d5 3e 57 7b 93 3e
       0.5443923 0.5247313 0.4166046 0.28805038
000300 30 90 7d 3f 65 dd bf 3e 82 e8 10 3f 04 62 34 3f
       0.9904814 0.37473598 0.5660478 0.7046206
000310 f2 19 de 3e da 2f 05 3f 59 2f b5 3e 7a dc 20 3f
       0.4337917 0.5202614 0.35387686 0.6283642
000320 92 c0 29 3f b7 7a c1 3e 22 24 56 3f f1 08 24 3f
       0.66309464 0.37788936 0.83648884 0.64076144
000330 5a 0e 7e 3f 46 71 10 3f 98 41 22 3f 2e 5a dd 3e
       0.9924065 0.5642284 0.6338134 0.43232864
000340 39 d0 d2 3e a7 61 d3 3e ce 89 d0 3e 26 21 15 3f
       0.41174486 0.4128544 0.40730137 0.58253706
000350 74 0a 43 3f f6 1f e1 3e d6 4e 02 3f 77 e7 d6 3e
       0.76187825 0.43969697 0.50901544 0.4197347
000360 d1 0c 01 3f 27 ac ca 3e 6c fa 65 3e 79 f7 d2 3e
       0.5041018 0.39584467 0.2245881 0.41204432
000370 99 1c 9d 3f 85 c2 c0 3e 46 0c 54 3e 9e d5 c6 3e
       1.2274352 0.37648407 0.20707807 0.38834852
000380 9b 2a f7 3e 8e 9d 07 3f 46 94 2a 3f fb 2d 0a 3f
       0.48274693 0.52974784 0.666325 0.5397641
000390 ae d5 15 3f 99 0c 1b 3f 1a de 3e 3f 51 5e a9 3e
       0.58529174 0.605661 0.7455765 0.3307977
0003a0 51 2a 97 3e a3 ee 9a 3e d8 d8 dd 3e 60 6d ac 3e
       0.29524472 0.3026019 0.433295 0.33677197
0003b0 d7 77 0d 3f 16 80 b2 3e a2 14 29 3f 11 30 74 3f
       0.55260986 0.34863347 0.6604711 0.95385844
0003c0 5c c3 d4 3e bc 2e 88 3e 74 b6 11 3f 5a 82 3b 3f
       0.41555297 0.26598155 0.56919026 0.73245776
0003d0 ed fe 1e 3f 91 c9 63 3f 83 0d fd 3e c9 64 f4 3e
       0.62107736 0.8897944 0.4942437 0.47733143
0003e0 f3 fa 03 3f 73 da f9 3e e6 92 3a 3f 5e 56 d6 3e
       0.51554793 0.48799476 0.728804 0.41862768
0003f0 7e f7 f6 3e 05 52 cd 3e 14 a7 f3 3e c4 8a 1e 3f
       0.48235697 0.40101638 0.47588408 0.6193049

bn1.bias f4 [256]
000000 49 87 1a bd 83 9d 9a 3e 7d 2f fd bc 24 b1 4b 3e
       -0.037726674 0.30198297 -0.030906433 0.19891793
000010 28 c2 89 3d 12 66 80 3e 07 4a 2f 3e af 36 bb 3d
       0.067264855 0.25077873 0.17118083 0.091412894
000020 72 7e b0 3e b2 40 85 bd 38 69 75 3e 14 af 37 3d
       0.3447147 -0.0650648 0.23965919 0.044844702
000030 10 fe 97 3e 7d cf 05 be e9 73 26 3e 3e ac f2 3d
       0.29686022 -0.13067432 0.16255154 0.11849259
000040 0f 82 b4 3d 4b dd e1 3d e8 6d 52 3e 39 2b 66 3e
       0.08813869 0.110285364 0.20549738 0.22477426
000050 f0 97 b2 bc 6f 5b 18 bc 63 70 b3 3d 9a 2f 41 3e
       -0.021800965 -0.009299143 0.087616704 0.18865815
000060 3f a1 0a bd 9e 88 b7 3c 19 7d a5 3e 0d 35 3f 3e
       -0.033845183 0.022404011 0.32322004 0.18672581
000070 04 97 9c 3c 03 e4 fe 3d ba 51 b2 3e 28 2e 81 3e
       0.019114979 0.124458335 0.34827977 0.25230527
000080 45 7d ff 3d c2 06 6f 3e b5 20 95 3e cd a9 ac 3e
       0.12475065 0.23342422 0.29126516 0.33723298
000090 d1 96 b1 3c 8b dc 05 3f f1 d3 7f 3e 8d e4 80 3e
       0.02167836 0.52289647 0.24983193 0.2517437
0000a0 c2 46 e1 bc 5b f4 1c 3e ef 81 e6 3d 31 2e f8 3d
       -0.02749956 0.15327589 0.112552516 0.12118185
0000b0 9d 4b c4 3d 28 7e fd 3d 40 27 87 3e 2d 64 05 3e
       0.095847346 0.12377578 0.26397133 0.13026495
0000c0 b7 76 c7 38 62 fe 5a 3d 7c a6 91 3d b8 e5 57 3e
       9.511172e-05 0.053465255 0.071118325 0.21083724
0000d0 3b 86 2b 3e 3a 19 77 3e 65 bd a5 3e a6 ee 31 3b
       0.16750424 0.24130717 0.3237106 0.0027150302
0000e0 57 20 88 3e 29 d9 5b 3e d1 4a b3 3d a2 f6 8a 3d
       0.26587173 0.21469559 0.087545045 0.06785323
0000f0 be 5c 2c 3e 50 13 5f 3e 32 eb 1b 3e 3a 37 13 bd
       0.16832253 0.21784711 0.15226439 -0.03594134
000100 53 60 69 3e 75 f3 17 3c 26 c4 54 3c fb 57 df bc
       0.22790651 0.009274353 0.012986219 -0.027263632
000110 5c dc a6 3e 55 ed 99 be ca ee a0 3b 03 6f a3 3d
       0.32589996 -0.30063882 0.0049112784 0.07980158
000120 c2 79 93 3d 67 03 94 bd 69 41 44 3e 29 40 ef 3d
       0.07200958 -0.072272114 0.19165577 0.116821595
000130 f3 55 34 3e 39 e3 61 3d 92 51 ba 3d a8 0f 96 3e
       0.17610912 0.055148337 0.090975896 0.2930882
000140 94 09 3b 3e 07 a7 22 3e d6 d4 25 3e 8b ee 6b 3e
       0.18265373 0.15884028 0.16194472 0.23040216
000150 21 c3 1d 3e 48 a1 3c 3d 80 0f c4 3e 49 6a 5a 3e
       0.15406467 0.046052247 0.38293076 0.21329607
000160 83 c6 04 be 3b c1 e2 bc 14 36 0f 3e 79 e0 66 3d
       -0.12966351 -0.02768003 0.13985473 0.056366418
000170 42 bc d3 bc 26 43 88 3e 3d 43 97 3e 0a 1f a6 3e
       -0.025846604 0.2661373 0.29543486 0.32445556
000180 b4 d3 5b 3e e3 49 bc 3d 18 50 19 3e 3e ff 54 3e
       0.21467477 0.0919378 0.1497196 0.20800492
000190 b0 f2 42 3e 49 48 17 3e 04 e1 10 3e 5d 33 06 3e
       0.1903789 0.14773668 0.14148337 0.13105531
0001a0 cb 63 23 3e 01 f4 70 3d fc db 4c 3d 57 64 92 3e
       0.15956037 0.05882645 0.05001448 0.28592178
0001b0 91 87 9c bd 47 cf 05 3e 48 5b b1 3d ea 3b 58 3e
       -0.07643045 0.13067351 0.08659989 0.21116605
0001c0 c9 d0 5f 3d ba cc 55 3e e8 5d 39 3e 64 43 54 3e
       0.054642472 0.20878878 0.18102229 0.20728832
0001d0 f1 f7 69 3e c8 b9 05 3e 7c 80 79 3e e2 e6 19 3e
       0.22848488 0.13059151 0.24365419 0.15029481
0001e0 74 e6 4e 3e b1 26 2f 3e d1 a4 ae 3d 58 fa ea 3d
       0.20205098 0.17104603 0.0852753 0.114735305
0001f0 a2 ce 13 be 19 a3 17 3e 4a ad a8 3d 30 92 20 bc
       -0.14434293 0.1480831 0.08236177 -0.009800479
000200 5e 62 20 3e 90 8b c1 3d 1a 16 31 3d f3 76 ae 3d
       0.15662524 0.094504476 0.04323397 0.085187815
000210 1f 7f 70 bc 71 c0 2c 3e 79 1b 2f 3e 67 24 f4 bd
       -0.0146787455 0.16870286 0.17100324 -0.11921006
000220 cf 4d aa 3a 19 77 a1 3c 3c 0c 17 bd ec ad 1f be
       0.001299316 0.01971011 -0.036876902 -0.1559369
000230 17 54 5a be db 1c ab 3c f6 ae 97 3d ea 7a 28 3d
       -0.2132114 0.020887783 0.07406418 0.041132845
000240 92 71 1b 3d 58 d3 25 be e0 da 0a 3e b8 7f 27 3e
       0.037950106 -0.16193902 0.13560057 0.16357315
000250 73 0b 9e 3d c8 80 53 3e 7b 86 46 3e 5f 6f 91 3e
       0.077170275 0.20654595 0.19387238 0.28405282
000260 02 ed 76 3d 7f 17 b9 3d 8f 38 e5 3c ed 86 b5 3e
       0.060284622 0.09037685 0.02798107 0.35454503
000270 9f b9 58 3e 7f 04 a0 3c 92 0b 46 3e f5 cd 95 3e
       0.21164559 0.019533394 0.19340351 0.29258695
000280 39 30 49 3e f6 26 a3 3e 3a 32 01 3e 1d fb aa bc
       0.19647302 0.31865662 0.12616816 -0.020871693
000290 fc 7e 6c 3e 86 68 24 3e 09 4e 67 3e 5d 5f 57 3d
       0.23095316 0.16055498 0.22588362 0.05258118
0002a0 30 4a 19 3d 82 90 fc 3d d7 26 6c bd c5 03 a4 bd
       0.037424266 0.1233225 -0.057654228 -0.080085315
0002b0 6c de 06 3e 3e 34 22 3e 8d 28 fb 3d 57 81 19 3e
       0.13170785 0.15840241 0.12263594 0.14990745
0002c0 83 e3 3b 3e e6 c6 90 3d fc ba 62 3e 6d 47 1a 3e
       0.18348508 0.07069187 0.22141641 0.1506631
0002d0 e2 68 62 3e 03 85 ef 3d 1d e0 f3 3d 6a 48 29 bd
       0.22110322 0.11695292 0.119079806 -0.041328825
0002e0 7e 35 f0 3d 7e 72 e4 3d b5 6d 9a 3e 52 d5 59 3e
       0.11728953 0.1115465 0.30161825 0.21272781
0002f0 65 b5 87 3d f0 ca 22 3e 35 b4 1a 3e 3f c1 86 3e
       0.06626395 0.15897727 0.15107806 0.2631931
000300 76 62 a9 3e 9f 2c 2c 3e 59 b6 4d 3e 75 82 05 3e
       0.33082932 0.16813897 0.20089091 0.13038047
000310 be d9 17 3d 7e 1a 8a 3e 47 b3 01 3e cc 07 5a 3c
       0.03707289 0.26973337 0.12666045 0.013307523
000320 4f 12 5c 3e c1 34 d5 3d ea ca 57 3e 75 97 8b 3e
       0.21491359 0.10410453 0.210735 0.2726399
000330 06 79 f3 3d 20 01 9e 3e 34 b0 b6 bc 6e 0b da 3c
       0.11888318 0.30860233 -0.022300817 0.026616778
000340 e9 ff 9d 3d a1 e6 13 3e 9e 70 a5 3e b6 b1 54 3e
       0.077148266 0.14443447 0.32312483 0.20770916
000350 02 c3 95 3e b0 f2 ae 3e 82 8f 18 3e 37 40 e3 3d
       0.29250342 0.3416953 0.14898494 0.110962324
000360 a5 35 58 3e a3 2c a5 3d 94 12 c9 3d b0 4e b2 3d
       0.21114214 0.080651544 0.098179966 0.08706415
000370 4d f7 4f 3e 78 75 2e 3e 38 10 93 3e 27 92 84 3e
       0.20309182 0.17036998 0.2872331 0.25892755
000380 9d f6 9d 3e c2 fc f1 3b 04 43 f9 3d 0e 2e 95 3e
       0.30852214 0.0073848674 0.12170985 0.291367
000390 d9 ae 9f 3e 1f f8 26 3e 66 a2 d1 3d 43 34 87 be
       0.31188086 0.16305588 0.10236053 -0.2640706
0003a0 75 8e 9b 3e f6 e2 a6 3e ea 92 b2 bc 5e c7 da 3c
       0.30382124 0.32595032 -0.02179857 0.026706394
0003b0 60 dc 9d 3d d6 b3 25 3e 90 af a5 3e 96 ad 54 3e
       0.07708049 0.16181883 0.32360506 0.20769343
0003c0 62 51 fb bc 7e 20 35 be 25 fc 50 3e 93 b3 34 3e
       -0.030678455 -0.17688176 0.20408686 0.17646627
0003d0 0b ad 30 3e bf 81 62 3d 01 73 3f 3e 08 d5 ed 3d
       0.1725351 0.055299517 0.18696214 0.11612898
0003e0 87 25 c9 3e 46 fb 8d bd 9c 9a cc 3d 39 c8 db 3d
       0.39286444 -0.06932692 0.09990427 0.10731549
0003f0 cc 14 7a 3e 6f db c3 3d a3 b5 91 3d 71 91 70 3d
       0.24421996 0.09563338 0.071147226 0.058732454

bn1.running_mean f4 [256]
000000 6f 90 81 3e 61 90 3b 3e e2 56 74 3e 22 cc 6f 3e
       0.25305507 0.18316795 0.23861268 0.23417714
000010 18 a9 65 3e ae 35 fa 3d 62 7c 8a 3d 1e c2 db 3d
       0.22427785 0.1221727 0.067620054 0.10730384
000020 3c 40 c7 3e 92 3e dd 3e fc 70 25 3f de 29 3a 3e
       0.38916194 0.432118 0.64625525 0.18180034
000030 60 38 01 3e 63 26 66 3f 3a 53 47 3e 1c fa 3a 3e
       0.12619162 0.89902323 0.19465342 0.18259472
000040 15 0f d1 3e 8f 89 ac 3d 6e ab 3c 3e 29 d1 e6 3d
       0.4083182 0.08424675 0.1842477 0.11270363
000050 a9 bc e2 3e e6 ca 03 3e 38 7a 34 3e 07 ed 13 3e
       0.4428456 0.12870368 0.17624748 0.14445888
000060 42 a8 2d 3f d5 f4 87 3e ad 39 89 3e 06 54 4a 3e
       0.67834866 0.2655398 0.26801816 0.19758615
000070 bd 9e 2c 3f 58 da 8c 3e 1f 52 fd 3e ef b2 63 3e
       0.67429715 0.27510333 0.49476716 0.22236226
000080 8f ae 6e 3e c3 92 57 3f f3 03 58 3e 50 73 45 3e
       0.23308776 0.84208316 0.21095257 0.1928227
000090 fe 43 b0 3e a0 cd 9a 3d d5 26 15 3e 31 2c 59 3d
       0.34426874 0.07558751 0.14565594 0.05302066
0000a0 75 1b a3 3e 52 57 60 3e bb 59 e7 3d 94 cb 16 3e
       0.31856886 0.2190831 0.112964116 0.14726096
0000b0 40 e9 4f 3e da 4b 24 3e c8 fa 36 3e 42 7e 07 3e
       0.20303822 0.1604456 0.17869103 0.13231757
0000c0 10 c0 ea 3e 7a a1 d9 3d 20 72 11 3e 55 ea c9 3d
       0.45849657 0.10626502 0.14203691 0.098591484
0000d0 47 00 7d 3d 9f 0f 91 3f f7 a9 03 3e 32 ad cd 3e
       0.061767843 1.1332892 0.12857805 0.401712
0000e0 30 4b de 3e a8 76 dc 3e 82 91 aa 3e f3 05 e1 3d
       0.4341674 0.43059278 0.3331414 0.10987463
0000f0 b1 9e 72 3e ac 5a 43 3e 3a ca 5b 3e 76 6f 63 3e
       0.23693348 0.19077557 0.21463862 0.22210488
000100 f1 fd 8a 3f 4d fc d0 3d 6d f0 2b 3e 68 d1 40 3e
       1.0858747 0.102043726 0.16790934 0.18829882
000110 41 03 86 3e 10 bf fd 3e f5 10 63 3e 49 a3 84 3d
       0.26174358 0.49559832 0.22174437 0.06476457
000120 27 ec 20 3e 4c 44 05 3e 61 3f 97 3d a2 98 6f 3f
       0.15715085 0.13014334 0.073851354 0.93592274
000130 67 62 27 3e 3e 67 3d 3e cd d3 47 3e 7e 43 f2 3e
       0.16346131 0.18496415 0.1951439 0.47317117
000140 6f 12 29 3f a5 18 4c 3e 05 53 9c 3e 2b 90 75 3d
       0.6604375 0.19931276 0.3053209 0.059951942
000150 51 1b 2b 3e 7c 98 ac 3d 25 d7 fb 3d 88 f2 43 3e
       0.16709639 0.084275216 0.12296895 0.19135487
000160 3d c4 03 3f 3e d7 e6 3d d7 1d d1 3e 74 27 04 3f
       0.5147131 0.11271523 0.40843078 0.516227
000170 87 64 88 3e bf 2c dd 3e d0 e9 95 3e 4d ae 4b 3e
       0.26639196 0.431982 0.29279947 0.19890709
000180 b2 41 64 3e 0b fb ac 3e f8 05 a4 3e 3f 50 96 3e
       0.22290686 0.3378528 0.32035804 0.29358098
000190 d9 03 0e 3e cb 41 a9 3e a9 d0 55 3e 8d cb 60 3e
       0.13868655 0.3305801 0.20880379 0.21952648
0001a0 a4 88 36 3e e6 3a e5 3d 91 80 20 3e 23 dc fd 3e
       0.17825562 0.111928746 0.15674044 0.49582013
0001b0 20 c8 38 3f 3c 48 16 3e 21 f1 69 3d 3a b7 55 3e
       0.72180367 0.14675993 0.057114724 0.20870677
0001c0 cd b3 5a 3e 70 96 89 3e cf 44 b8 3d 11 a7 13 3f
       0.21357651 0.26872587 0.08997499 0.576768
0001d0 c8 57 6a 3d 3b 73 0d 3e be 26 b3 3d 18 82 94 3d
       0.05721262 0.13813488 0.08747624 0.07251376
0001e0 b4 81 9f 3e 02 4a 10 3e 6d 74 f0 3e f6 2e 05 3e
       0.31153643 0.14090732 0.46963826 0.13006195
0001f0 22 ec 39 3e a3 e4 63 3e 29 ce 4c 3d 47 34 69 3e
       0.18156484 0.22255187 0.050001297 0.22773848
000200 6c 3d 55 3e 26 5c ee 3d be 85 04 3f 97 18 b5 3d
       0.20824212 0.1163867 0.51766574 0.08842581
000210 12 c5 db 3d cf 9e 41 3e cd b1 96 3d bf 0c 1b 3e
       0.107309476 0.18908237 0.073581316 0.15141581
000220 58 56 0e 3e 53 87 63 3e 76 37 9a 3d 26 64 e4 3d
       0.13900125 0.22219591 0.075301096 0.11151914
000230 f5 67 5b 3d 5a 7e 09 3e 4e 48 ab 3d 4b de 81 3e
       0.053565938 0.13427106 0.083634004 0.2536491
000240 c2 00 f2 3e 6c 2c 9b 3d 1d d3 e3 3d 2b 65 e0 3d
       0.47266203 0.07576832 0.11124251 0.10956796
000250 c7 5f a5 3d 2b e5 04 3e fa 91 9a 3e c9 7f 0e 3e
       0.08074909 0.12978046 0.30189496 0.13915934
000260 0a 47 c3 3e ee 16 5e 3f 06 eb 4d 3f 98 5e 0c 3e
       0.38140136 0.8675374 0.8043674 0.1370796
000270 77 64 3f 3e aa fa 38 3e c5 4e fb 3d 12 a0 a5 3e
       0.18690668 0.18064371 0.122708835 0.32348686
000280 14 a3 11 3f 38 05 dc 3e 69 da a2 3e 92 5b 89 3e
       0.5688946 0.42972732 0.3180726 0.26827675
000290 96 54 de 3d af 5c a9 3e 8b 5c 46 3f 7c ef 37 3e
       0.10855977 0.33078524 0.7748496 0.1796245
0002a0 46 14 6e 3e 3e 6d e2 3d ab 5b 86 3d 3b 53 83 3e
       0.23249921 0.110559925 0.06560453 0.25649437
0002b0 38 28 ad 3d ee f9 a2 3d 13 3c 82 3e 58 ef 21 3e
       0.08454937 0.079578266 0.25436458 0.15813959
0002c0 c8 e1 f7 3d a9 5d a0 3e a2 c2 a5 3e 59 48 5f 3d
       0.12103611 0.31321457 0.32375056 0.054512355
0002d0 fe 19 ca 3e 2b 81 b8 3e 3b 89 32 3f 0f 71 80 3d
       0.39472955 0.36036047 0.6974065 0.06271564
0002e0 56 e3 a7 3e 04 2b 3c 3e 9d f1 f5 3d d5 f2 ca 3d
       0.3279063 0.18375784 0.12008975 0.09909598
0002f0 2e b7 cc 3e f7 94 3c 3f bd b0 d3 3e 72 ef 8e 3d
       0.39983505 0.736648 0.41345778 0.06979264
000300 c3 07 56 3e 3c 28 9e 3d 86 86 d9 3e ff 82 72 3e
       0.20901398 0.07722518 0.42485446 0.23682784
000310 b7 46 3f 3e 08 7f 71 3e 00 05 69 3e ee 75 39 3f
       0.1867932 0.23583615 0.22755814 0.7244557
000320 15 40 5e 3e 5f f8 2c 3e 2f 28 29 3e a5 70 30 3e
       0.21704133 0.16891621 0.16519235 0.1723047
000330 0e 6f 84 3f e7 b6 80 3d 22 b5 81 3d 8a 5c b7 3e
       1.0346391 0.06284886 0.063333765 0.3581279
000340 5a a5 21 3e 93 b4 9d 3d 70 b9 0a 3e 23 2d af 3d
       0.15785733 0.077004574 0.13547301 0.08553531
000350 85 75 78 3d 60 82 c0 3e 33 35 02 3e f5 5b 31 3d
       0.06065895 0.37599468 0.12715606 0.043300588
000360 ae 74 1e 3e 3a 55 e3 3e 1c ae 17 3f 59 d1 42 3e
       0.15474197 0.4440096 0.59250045 0.19025172
000370 82 16 3d 3e 71 c2 17 3e 0b 99 67 3d 53 48 6c 3e
       0.18465617 0.14820267 0.056542438 0.23074464
000380 95 c9 b3 3d 3d dd 18 3e b8 3d df 3f b8 12 2b 3d
       0.08778683 0.14928146 1.744071 0.0417659
000390 77 2c 64 3e e5 f2 77 3e 60 b9 9f 3e 7d 7c e0 3d
       0.22282587 0.2421375 0.31196117 0.10961244
0003a0 fb 36 39 3f 8d 73 53 3e fe 47 3a 3e c9 41 66 3e
       0.7234952 0.20649548 0.18191525 0.22486033
0003b0 01 24 92 3e c7 fb 46 3e 44 a0 0c 3f 91 42 98 3e
       0.28543094 0.19431983 0.54932046 0.29738286
0003c0 c3 15 47 3e 8e ab 10 3e 35 a6 af 3d 06 19 a6 3e
       0.19441895 0.14127943 0.08576623 0.32440966
0003d0 4f a7 9d 3e d5 3d 03 3e df 11 02 3f d2 3c 58 3e
       0.3079171 0.12816556 0.5080852 0.21116951
0003e0 ed 3f cc 3e 58 67 27 3e 6c d1 9b 3e d6 78 67 3e
       0.39892522 0.16348016 0.30433214 0.22604689
0003f0 9c 15 cc 3d b3 ef 88 3f 90 9e e5 3e f5 c6 c1 3e
       0.09965059 1.069815 0.44847536 0.37847105

bn1.running_var f4 [256]
000000 d9 85 73 3e 12 8c 20 3e 04 8f 4f 3e cb 9a 6e 3e
       0.23781528 0.15678433 0.202694 0.23301236
000010 ae 39 1e 3e cc cc 20 3e 13 10 a3 3d 55 d0 91 3d
       0.1545169 0.15703124 0.0796205 0.07119814
000020 4b 4a 02 3f 9f e4 15 3f e1 e6 cb 3e 1b bd 01 3e
       0.5089461 0.58551973 0.39824584 0.12669794
000030 29 57 e3 3d ec 19 0b 3f 4b 39 42 3e f4 fb 3c 3e
       0.11100609 0.5433643 0.18967168 0.18455487
000040 42 ea 92 3e 30 86 99 3d fd 2b 15 3e c2 39 21 3e
       0.2869435 0.07496297 0.14567561 0.15744689
000050 7e 6c 29 3e 00 b3 de 3d 8b 0c 46 3e 80 79 22 3e
       0.16545293 0.10873985 0.19340722 0.15866661
000060 cd 4c 0c 3f 4d f8 79 3e 4a 12 62 3e f8 af 32 3e
       0.5480469 0.24411125 0.22077289 0.17449939
000070 2b b5 25 3f 53 dd 8b 3e 24 38 dd 3e 4f 5f 68 3e
       0.64729565 0.27317294 0.43206894 0.22692607
000080 74 72 35 3e 6f c7 84 3f bf 43 32 3e d0 e9 54 3e
       0.17719442 1.0373362 0.17408656 0.20792317
000090 5a 3c a9 3e f7 5a 5d 3d 23 d8 0a 3e 45 71 8d 3d
       0.33053857 0.05404183 0.13559012 0.0690637
0000a0 6e f4 b6 3e a1 b7 15 3e 4b fa 87 3d 00 7d d2 3d
       0.3573336 0.1462083 0.066395365 0.10277748
0000b0 fc db 8c 3e 9f de 22 3e 45 e8 7a 3e 5a 58 33 3e
       0.27511585 0.15905236 0.24502666 0.17514172
0000c0 3a 93 80 3e b4 bb 8a 3d c9 ef f6 3d 29 f0 8e 3d
       0.25112325 0.06774083 0.12057454 0.06979401
0000d0 26 49 4d 3d 9f c7 00 40 e7 99 0f 3e e2 fb 77 3e
       0.050118588 2.012184 0.14023553 0.2421718
0000e0 5b 1c e7 3e d9 4a e2 3e da ce 7a 3e 83 32 aa 3d
       0.4513882 0.4419773 0.2449297 0.083104156
0000f0 f7 66 44 3e 5e 9b d6 3d 4c 1d 92 3e 9c 6d 11 3e
       0.19179903 0.10478853 0.28537977 0.14201969
000100 c3 f0 49 3f 83 a8 1e 3e fb c4 37 3e e3 97 08 3e
       0.78883 0.1549397 0.17946236 0.1333919
000110 fc eb a5 3e 6f ca 1a 3f 09 91 35 3e 5b 42 ae 3d
       0.32406604 0.6046514 0.17731108 0.0850875
000120 b0 f0 02 3e 46 2b ec 3d 21 27 b0 3d 7c cb 55 3f
       0.12787127 0.11531691 0.08601213 0.8351362
000130 87 f3 1c 3e f7 bc 1e 3e a1 39 81 3e 56 8f a7 3e
       0.15327273 0.15501772 0.2523928 0.32726544
000140 ec 17 2b 3f cf a2 f5 3d f8 fe a0 3e 30 bb 53 3d
       0.66833377 0.11993944 0.31444526 0.051692188
000150 8b 8c c6 3d 99 88 d7 3d 8c ab cd 3d 3f a0 29 3e
       0.09694775 0.10524101 0.100424856 0.16565035
000160 06 64 0b 3f 19 10 c0 3d d0 91 83 3e 40 1e d0 3e
       0.544495 0.093780704 0.25697184 0.4064808
000170 69 79 14 3e 22 66 b5 3e 5e 30 a0 3e ed 76 f4 3d
       0.1449944 0.35429484 0.312869 0.11936746
000180 91 b6 45 3e 6d 25 ac 3e dc e7 94 3e 86 ea 92 3e
       0.19307925 0.33622304 0.29083145 0.28694552
000190 8d 0d 26 3e 5d 38 a0 3e ea 68 33 3e fc a6 19 3e
       0.16216107 0.31293002 0.1752049 0.15005106
0001a0 7a 12 1a 3e 56 75 a5 3d 56 56 30 3e 83 cf c4 3e
       0.15046111 0.08079021 0.17220435 0.3843957
0001b0 fd dd 15 3f 83 83 e5 3d 2b b6 16 3d d5 e9 83 3e
       0.5854185 0.112067245 0.036794823 0.25764337
0001c0 f7 26 61 3e eb 47 8e 3e 47 44 12 3e aa 2e 20 3f
       0.2198752 0.27789244 0.14283858 0.62571204
0001d0 be e4 35 3d 3b b8 b0 3d fa ed d6 3d 4d 5b 9f 3d
       0.0444076 0.08628889 0.10494609 0.07781086
0001e0 be c4 69 3e 6c 19 0d 3e a1 51 90 3e 78 69 2d 3e
       0.22828957 0.13779229 0.28187278 0.16934764
0001f0 23 2f 43 3e f1 cb 50 3e cd e0 4f 3d ee 4a 81 3e
       0.1906095 0.20390297 0.050751496 0.2525248
000200 d5 a1 0e 3e 74 4d 07 3e 22 13 71 3e fa 62 06 3e
       0.13928922 0.1321314 0.23542455 0.13123694
000210 85 cd 18 3e 81 6a 17 3e 92 a3 c5 3d 90 32 0f 3e
       0.1492215 0.14786722 0.09650339 0.13984132
000220 2e 33 38 3e 7a d6 75 3e 61 e7 91 3d 8d f0 c9 3d
       0.17988274 0.24007598 0.0712421 0.098603345
000230 2f a9 27 3d 8e 22 e7 3d 92 2b ad 3d 16 d5 c7 3e
       0.04093283 0.11285888 0.08455576 0.3902976
000240 fd 05 a2 3e 79 ed 62 3d 55 16 99 3d 2b c6 f4 3d
       0.31645194 0.055402253 0.074749626 0.1195186
000250 e9 58 a6 3d aa b4 ed 3d 14 1a 81 3e 0e 83 1f 3e
       0.08122427 0.116067246 0.2521521 0.15577337
000260 3c c1 a0 3e e6 a2 4f 3e 73 a8 69 3e 09 60 5b 3e
       0.31397426 0.20276985 0.22818165 0.21423353
000270 e4 90 1c 3e 21 a3 ed 3d 0f ac 1d 3e f5 69 bc 3e
       0.15289646 0.1160338 0.15397666 0.3679959
000280 ed 39 29 3f c7 39 ef 3e d4 37 a2 3e a4 48 96 3e
       0.6610401 0.46723768 0.31683218 0.29352295
000290 5d 53 63 3e 6d 4d 96 3e 1c ee 67 3f 0a 50 04 3e
       0.2219977 0.29355946 0.905977 0.12921157
0002a0 b5 a4 17 3e 8d 44 d4 3d b7 dc 39 3d 14 26 8a 3e
       0.14808924 0.103646375 0.045376506 0.26982176
0002b0 2f 56 f8 3d 0d 34 04 3e 63 21 51 3e 6e 0e 26 3e
       0.12125813 0.12910481 0.20422892 0.16216442
0002c0 b5 e3 dc 3d f2 b9 93 3e c8 31 b2 3e cf 18 3a 3d
       0.10785619 0.28852803 0.34803605 0.045433816
0002d0 f4 b8 64 3e cb b1 8c 3e c7 b6 95 3f 9d 33 8e 3d
       0.22336179 0.27479395 1.1696404 0.06943438
0002e0 0e 14 9e 3e 51 43 12 3e 48 9e b9 3d 47 08 d0 3d
       0.30874676 0.14283492 0.09063393 0.10157829
0002f0 52 07 9c 3e 49 6b 57 3e d6 33 d5 3e 2d 36 09 3e
       0.30474335 0.2103702 0.4164111 0.13399573
000300 33 c1 00 3e 4b 48 de 3d 0a 24 ca 3e 37 54 6f 3e
       0.125737 0.108536325 0.3948062 0.23371969
000310 76 95 1a 3e 8f 5e 34 3e d4 22 79 3e a6 a4 98 3e
       0.15096077 0.17614196 0.24329692 0.29813117
000320 7a 3a 2d 3e 59 72 c8 3d 84 e9 20 3e 7c 8a 45 3e
       0.16916838 0.09787435 0.15714079 0.19291109
000330 9d 10 a0 3e 49 91 e1 3d b4 e4 7f 3d 16 28 7e 3e
       0.31262675 0.11014039 0.062473968 0.24819979
000340 04 2b 41 3e 20 36 b3 3d 3c 52 2e 3e d5 4b b8 3d
       0.18864065 0.08750558 0.17023557 0.08998839
000350 8d 7a c3 3d dc 1a c2 3e 11 84 d6 3d 8a de 2f 3d
       0.09544859 0.37911117 0.104744084 0.04293684
000360 8e f8 fb 3d bd 89 0b 3f 63 42 50 3f dc 98 60 3e
       0.123032674 0.54507047 0.813513 0.21933311
000370 8a 41 10 3e dd 4d 24 3e 1b ed 00 3e b9 b1 d0 3e
       0.14087501 0.16045327 0.12590449 0.40760592
000380 84 76 f9 3d 94 02 22 3e 9d 3b 33 3f 0a 6c 42 3d
       0.12180808 0.15821296 0.7001284 0.047466315
000390 dd 08 52 3e 1d a2 36 3e df 33 2d 3e d9 04 aa 3d
       0.20511194 0.17835279 0.16914319 0.08301706
0003a0 60 ca 09 3f b9 60 5d 3e d1 4c 7c 3e 58 4d 94 3e
       0.53824425 0.21618928 0.24638678 0.2896526
0003b0 23 ed 4f 3e 4f 2a 38 3e 84 58 ba 3e 6a 5b 71 3e
       0.20305304 0.1798489 0.36395657 0.23570028
0003c0 04 58 2d 3e d2 63 48 3e d9 8d 8c 3d 60 ac 90 3e
       0.16928107 0.19569328 0.06862993 0.28256512
0003d0 df bd 58 3e 8d 19 a7 3d e6 da d5 3e e1 fc 67 3e
       0.2116618 0.0815917 0.4176857 0.2265506
0003e0 8b 6a ee 3e f0 4b fd 3d f1 0a 80 3e fd e7 19 3e
       0.4656566 0.123679996 0.25008348 0.15029903
0003f0 00 51 b4 3d b3 5f 84 3f f8 0d f5 3e c8 a9 74 3e
       0.08804512 1.0341705 0.4786222 0.23892891

fc2.weight f4 [256, 256]
000000 35 96 1e bd b0 8d 45 3d c1 27 b7 bc 16 14 8d be
       -0.038717467 0.048230827 -0.022357823 -0.27554387
000010 d1 88 41 3e 82 e1 4d bd 5b ed b7 3b b4 40 a6 be
       0.18899848 -0.05026389 0.005613012 -0.3247124
000020 22 b8 0c be fe c6 fb bd ad 57 e5 3c cb 25 4b be
       -0.13742116 -0.12293814 0.027995909 -0.19838636
000030 1a 13 48 3d 2c 31 59 be 2a 77 2f bb 24 a8 5a 3d
       0.04884634 -0.21210164 -0.0026773908 0.053383008
000040 84 44 17 bc f0 09 1b 3d 88 03 aa ba 77 7d 4a be
       -0.009232644 0.037851274 -0.0012971023 -0.19774424
000050 49 a0 d7 bc b4 e0 30 3e fd e3 04 3e 01 c3 c3 bd
       -0.026321547 0.17273217 0.12977596 -0.095586784
000060 09 b5 7c be 8a 5e 0f be 49 da 31 3d e5 62 15 3e
       -0.24678434 -0.14000908 0.043421064 0.14588507
000070 57 a8 a7 b8 72 62 da 3a e2 9e d2 bc 7e e8 bd bd
       -7.994536e-05 0.0016661419 -0.025710527 -0.0927286
000080 80 2f 4d be 0e b7 0a be 72 c7 1d bd 64 78 01 be
       -0.20037651 -0.13546392 -0.038520284 -0.12643582
000090 0c 08 d0 3c f2 bc 08 3d d2 10 d1 bd 15 a3 fb 3c
       0.025394462 0.033383317 -0.10208286 0.030717412
0000a0 e5 65 ef 3d 2d 6c a5 be 41 7a 7f 3d 41 9e e3 bd
       0.11689357 -0.32309094 0.06237245 -0.11114169
0000b0 d7 1c 3e 3e a8 27 59 bc ae 0c 4f 3e e6 e5 38 3d
       0.18565689 -0.013254084 0.2021968 0.045141123
0000c0 d5 3a 89 be 47 5d 09 be ab ef b3 bd eb 8d 54 be
       -0.26802698 -0.13414489 -0.087859474 -0.20757262
0000d0 d5 05 2c be 4c 2f 57 bd af 4e 1b be ce 43 c0 bd
       -0.167991 -0.05253534 -0.15166734 -0.09387933
0000e0 c2 33 3d be c8 87 11 3d 2f 49 0a be 1e 43 b9 bd
       -0.18476775 0.03552988 -0.1350448 -0.09046005
0000f0 c7 70 05 3e a6 36 c3 3d be cb f9 bd fb 1a 11 be
       0.13031302 0.09531908 -0.12197064 -0.14170448
000100 47 55 e5 bc 95 93 8f bd d2 25 5c 3d 39 6f 1d 3d
       -0.027994765 -0.07010571 0.053747006 0.03843615
000110 78 8a 34 be 54 6b aa 3d ab 59 61 bc 9f d7 a3 bd
       -0.17630947 0.083212525 -0.013754289 -0.08000111
000120 f3 fb fd bd 64 b7 93 bc 4f 78 3b 3e d8 3d 48 3d
       -0.12401571 -0.018031783 0.18307613 0.048887104
000130 db b2 ed 3b 42 38 e1 bb 3a bb 45 be f5 13 84 3c
       0.0072539872 -0.0068731615 -0.19309703 0.016122798
000140 2e e7 a3 3d 17 9b 99 be 56 80 d7 bd a5 3d e5 bc
       0.080030784 -0.30001137 -0.10522525 -0.027983496
000150 06 90 65 bc 68 f9 3e be 61 45 20 3d da ce e1 3d
       -0.014011389 -0.18649828 0.039128665 0.11025782
000160 e4 b0 80 be eb d2 60 be 08 f8 2c be 3f c3 71 bd
       -0.25134957 -0.21955459 -0.16891491 -0.05902409
000170 84 47 29 3e 18 f4 5c 3c 48 8d 5a bd 3e 9b 2d be
       0.16531187 0.013485931 -0.053357393 -0.16953751
000180 92 a3 2c bd 03 03 ac 3d f3 9d 93 be aa 47 cc 3c
       -0.04214818 0.08399012 -0.28831443 0.024936516
000190 11 44 b4 3c 50 62 a0 3d c9 8e 3b 3e 4a ca 6f bc
       0.022005113 0.078312516 0.18316187 -0.014635632
0001a0 2b f7 45 be d3 54 06 3e e4 f9 9c bd cc a0 19 3e
       -0.19332568 0.13118295 -0.0766485 0.15002745
0001b0 8c b1 b3 be eb 55 53 be 69 69 00 3d 0e 1f c8 3d
       -0.35096395 -0.20638244 0.031350527 0.09771548
0001c0 6d d1 3c be 08 52 70 bc a9 c7 82 be c2 bd 2f bd
       -0.18439265 -0.014667995 -0.25542954 -0.042905577
0001d0 09 e2 2a bc 55 15 e2 3c bd 1c d2 3d b5 34 d2 3d
       -0.010429868 0.027598063 0.10259388 0.10263959
0001e0 a1 d6 98 bd 04 41 0b bd 88 75 aa 3c a3 0d 6c bd
       -0.07462812 -0.03399755 0.020807996 -0.057630192
0001f0 c4 54 a5 bd b6 a4 9a 3d 6e 57 1c bc b4 8c 35 3e
       -0.080728084 0.07550947 -0.009542329 0.17729455
000200 99 6e b4 be 35 90 4b 3e d1 e7 3b be 79 3b 07 3e
       -0.3524063 0.1987923 -0.1835015 0.13206281
000210 6b 58 55 3d e2 7e 67 bd b4 ec 0f 3e c3 d7 b7 bd
       0.052086275 -0.05651749 0.14055139 -0.089767
000220 ff 5a 12 be 5c bb 1f be ad cc 04 be 0f 2b 45 3e
       -0.14292525 -0.15598816 -0.12968703 0.19254707
000230 e3 05 7d bd 01 6a 28 3d 30 0f 96 3d 57 c2 01 be
       -0.061773192 0.04111672 0.073271155 -0.12671791
000240 8a 2b 9e 3d 6b e8 1b be 5e 00 fc 3d 96 78 41 3e
       0.07723148 -0.15225379 0.123047575 0.18893656
000250 12 6e 99 bd a4 64 da bd 92 fa 05 bb 1b 6e 8a bc
       -0.07491697 -0.10663727 -0.002044354 -0.016898206
000260 a8 24 24 be fd 67 ea 3d c1 7f f3 bd 25 b4 3c bd
       -0.16029608 0.114456154 -0.118896015 -0.046070237
000270 3a bc 45 be 26 56 88 bd 3d bf be 3b 6c a8 e4 bd
       -0.19310084 -0.066570565 0.005821137 -0.111649364
000280 d7 0c 80 bd fd f7 fe bd b7 e7 15 3c 15 09 a7 be
       -0.06252449 -0.12449644 0.009149483 -0.32624117
000290 6c 40 aa 3c 9f 51 eb bc 50 08 72 be ae 98 a4 bd
       0.020782672 -0.028725443 -0.23635983 -0.08036934
0002a0 fe ed 19 bd 26 e7 b6 bd 8f 0f 01 be 27 ba 31 3d
       -0.037580483 -0.08930807 -0.12603591 0.04339042
0002b0 84 22 8f be 83 77 58 3c e7 87 38 3d 25 0a f8 bd
       -0.2795602 0.013212088 0.04505148 -0.1211131
0002c0 7d 19 2b bc 90 c5 a7 3c 0e 70 d0 3d a0 4a dc 3d
       -0.010443089 0.020479947 0.10177623 0.10756421
0002d0 52 13 1f 3e 31 5c 4e be 9d 5d fc bd 7b c4 8c 3d
       0.15534714 -0.20152356 -0.12322543 0.06873413
0002e0 52 02 6a 3c e3 70 04 3e aa eb c6 3d 82 e6 b7 bd
       0.01428278 0.12933688 0.09712918 -0.08979513
0002f0 ce 35 2e 3d 54 0b 82 bd f5 e1 a0 be 7e 68 48 be
       0.04253178 -0.06349817 -0.31422392 -0.1957111
000300 0a 74 12 be 18 e2 fd bb 20 75 70 bd 5d 1f 92 bd
       -0.14302078 -0.0077478997 -0.05870545 -0.07134888
000310 6e c7 01 3d 4d 97 7a be 70 a7 e0 3b 4b e5 2d bd
       0.03168433 -0.24471779 0.0068558976 -0.042455
000320 b7 b9 a0 3c 81 89 74 3c b6 15 82 be fe 2b a9 bd
       0.019619806 0.014925362 -0.2540719 -0.08260344
000330 41 ac f4 3d ff e0 44 bd e0 1c 09 be 22 64 a3 bd
       0.11946917 -0.048066135 -0.13389921 -0.07978083
000340 68 37 e7 bd 02 62 c7 3d e5 02 80 bd 3c c0 a2 bd
       -0.11289865 0.097354904 -0.06250552 -0.07946822
000350 a8 2b 5a bc d1 49 b1 bc e0 04 7e 3d 34 ac 2d 3d
       -0.0133160725 -0.021641644 0.062016368 0.042400554
000360 1a 2b 46 be a0 fc b4 bd cd 95 23 bd 79 f5 e1 3c
       -0.1935238 -0.08837247 -0.039937783 0.02758287
000370 80 22 8b be 31 36 ef bc 74 d1 f5 bd 1c 63 a2 3d
       -0.2717476 -0.029200645 -0.12002841 0.0792906
000380 5f 23 7e be ae f4 96 3d 24 4a 4c be 63 f2 79 be
       -0.2481818 0.07370888 -0.19950157 -0.2440887
000390 76 55 cc be 44 5d 36 bc b8 33 21 3e a6 f0 de bd
       -0.39908952 -0.011130635 0.15742385 -0.10885744
0003a0 95 b6 07 be 31 de 4e bd 5a f5 d8 bd 8d 27 00 bd
       -0.13253243 -0.050504867 -0.10593672 -0.03128772
0003b0 cd 5a 6d 3c 0d 28 cb 3d 5e f9 3e be c1 9b 72 be
       0.014486981 0.099197485 -0.18649814 -0.23692228
0003c0 cb 84 80 bd ae 81 0b 3e 32 6e 31 3e 9e 5a 6c be
       -0.06275328 0.13623688 0.17327192 -0.23081443
0003d0 cd 52 13 bd 31 ae 00 be 0a a6 33 3e 79 f9 23 bc
       -0.035967637 -0.12566449 0.17543808 -0.010008209
0003e0 c9 44 97 bd a0 d8 ae bd 65 96 1d be 2b 1e 88 3d
       -0.073861666 -0.08537412 -0.15389402 0.06646379
0003f0 77 66 34 be 8c c5 ec bd 67 77 1c 3e 23 87 1f bd
       -0.17617212 -0.115611166 0.15279923 -0.038947236
