critic.pth (torch_old, 308544 bytes, 9 tensors)

fc1.weight f4 [256, 33]
00000000: f0ea 02be ca37 fe3d af38 453e a90c ef3d
00000010: f898 a4be 70ce 4f3e 7db3 bf3e 152e 86bd
00000020: 62a4 89bd 4d42 59bc 4d77 fabc c106 123d
00000030: bf9d 8a3d b092 24be b674 1dbd 4a87 973c
00000040: c489 d9be 79b1 a23e 477d cb3d 0fce 91bd
00000050: c3a9 af3d 9633 98bc fa6a a0bd 667c b6bd
00000060: 7367 9dbd 99b3 07bd 2aa0 a63d ecdf 473e
00000070: fb14 be3d b22d 423d e604 06be 344a ee3c
00000080: 6784 e6be dcc0 363d 219c 703d f3c8 87bd
00000090: c4e7 f7be 0d79 41be daed b4be 3e33 2f3e
000000a0: fb08 9abd fb8b f33d eeb3 863d aa71 7a3d
000000b0: 0104 2abd c761 08bd 8363 1fbd f035 02bc
000000c0: 831e c6bc 0220 20bd dbe4 bc3d 04d9 db3e
000000d0: 4270 293e 461a c3bc dfa7 edba cb3b bdbd
000000e0: d8e0 123e 60ca 063d 6bdc 0b3c 2fd4 373d
000000f0: 7efb 2cbd 8163 053e 640e c83c 4c7e 153d
00000100: 1295 3ebd a75c 21bf 7f92 98be ffe6 7c3d
00000110: b9e2 523d aa3e 5b3e 6ff3 a6be 7dc1 bcbd
00000120: 241d 9f3e d95b a7bc 5460 1cbd ace1 1bbe
00000130: 5051 f2bd 769f 42bd b331 8ebc de7f af3d
00000140: 7483 d6bd 4de1 cd3c 6a3d 6ebe 2e03 1a3e
00000150: 9286 85bd 71c5 723e bcd1 893d d3f1 8b3d
00000160: 17d2 ad3d c9ce 81bd 9eba 1abd 78c2 94bd
00000170: 1c01 2dbd 72f2 5d3e ae19 18be 5e26 3f3d
00000180: eb4b 8dbe ac09 bc3c 98ce f7be 221e d63c
00000190: 52e5 66bd 9f41 09bc c41e 54be 4ee7 eebd
000001a0: 410e d83d 9923 babd d856 4dbe 8c19 ba3d
000001b0: bad5 233d 8fc0 213d 1ec9 dcbd 5478 133d
000001c0: c9f3 36bd a2ff 1d3e 12f7 413d 4194 a63d
000001d0: 0c34 b33e 2dcc 133f 1710 54bd 5ac8 5d3e
000001e0: 0a48 2fbe d27b 153e 95f8 7ebd d4bd 083d
000001f0: af49 2c3e 6d6c dc3d e1dc c138 7872 c6bd
00000200: ac25 a9bc d43d 0bbc c0e6 163d d73a 173e
00000210: 92d7 8f3d a836 983d a63e b03d f010 82be
00000220: 196a 1b3d 7133 9d3c 0cac 113e e756 f2bc
00000230: dabb 033c 303a dc3d e33f 30ba 850c 713c
00000240: d33a 7e3c 1a0d cf3d 089e 6abd 7243 a33c
00000250: 09d9 353e 0a66 c93e 4dbf e33e b4fa 29be
00000260: 7e1c 8c3c 4383 513d f5d6 71bc 1c9a 6e3c
00000270: a0a5 bfbc 1510 c03b 1594 ccbd df82 473e
00000280: 96d6 db3d 683d 463c 4b51 24be 0048 3838
00000290: 7aaa 393f 61bf 3f3e 3d56 e8bd 511e bcbd
000002a0: 83f9 38be 4781 423d a7b4 2d3e 95a6 92bd
000002b0: fdd1 473d 4b2e 413d 4f3e 0d3e 195e 0bbd
000002c0: 7bd8 79bd 39c7 3f3b 06bb d73d 561a 113e
000002d0: 18d8 413c 7f01 9d3c c8da 6cbe 79e4 76be
000002e0: 9d27 6f3e d191 b1bc 7e48 9abd 6cfa ac3c
000002f0: c724 ac3d 1f21 783d 9cc9 bf3c ed30 56be
00000300: 96ef 683e 09ec de3d 4024 353d 201c 14be
00000310: ccca 57bd deae 163e c948 c7be 25da 953d
00000320: 6783 163d 860c 8fbe 59af c9bd 3c3b d9be
00000330: aad8 6c3d 25d5 c3bc 4e99 3d3d c1e6 b13e
00000340: 9177 e6bc 9c50 e93d b5d9 273d 0afb 96bd
00000350: 792e 2c3e 8ab2 e2bd 4a93 9e3d ec6a 42be
00000360: 607f 8fbe a007 87bd 43f3 4f3c be13 ecbb
00000370: 0037 b9bc 4365 72bc ca16 d03d 7e5c 383a
00000380: b89c 273d c911 1d3e 2904 25bd eac4 28bd
00000390: 79ca 30be aaf1 183d ded6 40bc 527e b23d
000003a0: 7409 083e 63a6 3ebe 3991 6f3d 23ad e1be
000003b0: d562 d03e b115 44be 848a 48bd c295 9c3d
000003c0: 5412 423d 8527 803c 2137 533c f2cc d7bc
000003d0: 67f0 b5bc abd4 1f3d 5ef8 173c 521b 773e
000003e0: 4217 283f df13 c0be cb3d bbbe 99e1 51bc
000003f0: 1acc b7bb d8e3 0eba 3133 02be a07e 6ebd
-0.12784934 0.12412985 0.19259904 0.116723366 -0.32147956 0.20293593 0.37441626 -0.06551758
-0.06720807 -0.013260436 -0.030574465 0.035650972 0.06768369 -0.16071582 -0.038441382 0.018497128
-0.4248792 0.31776026 0.09936004 -0.07119381 0.08577301 -0.018579286 -0.07832904 -0.08910446
-0.07685747 -0.033130262 0.081360176 0.19519013 0.092813455 0.04740686 -0.13087806 0.029088117
-0.4502289 0.04461752 0.058742646 -0.06630125 -0.4841901 -0.18893833 -0.35337716 0.17109391
-0.07521244 0.118919335 0.065772876 0.061143555 -0.041507725 -0.033296373 -0.03891326 -0.00794743
-0.024184471 -0.039093025 0.09223338 0.42939007 0.16546729 -0.02381624 -0.0018131695 -0.0923992
0.14343584 0.032907844 0.008536438 0.04488009 -0.04223203 0.13026239 0.024420924 0.0364974
-0.046528883 -0.63032 -0.29799268 0.061743733 0.05148575 0.21410623 -0.326076 -0.092165925
0.3107692 -0.020429539 -0.038177803 -0.15222806 -0.118319154 -0.047515355 -0.017357683 0.085693106
-0.104742914 0.025131846 -0.23265615 0.15040275 -0.06519808 0.2370813 0.06729457 0.06833234
0.08487337 -0.06338269 -0.03777563 -0.072636545 -0.042237386 0.21674517 -0.14853546 0.04666745
-0.27596983 0.02295383 -0.48399806 0.026137415 -0.05637104 -0.008377462 -0.20714861 -0.116652116
0.10549594 -0.09088821 -0.2005266 0.09086904 0.039998747 0.03949028 -0.107805476 0.036003426
-0.044666085 0.15429547 0.047354765 0.08133746 0.35000646 0.5773342 -0.051773157 0.2165846
-0.17117324 0.14598015 -0.062248785 0.03338416 0.16824983 0.10762868 9.244099e-05 -0.09689802
-0.020647846 -0.008498628 0.036841154 0.1476854 0.07023539 0.074323 0.08605699 -0.25403547
0.03794298 0.019189568 0.14225787 -0.029582454 0.008040393 0.10753286 -0.0006723387 0.014712458
0.0155169545 0.10109921 -0.057279617 0.019929621 0.17758574 0.39335662 0.44481888 -0.16599542
0.01710343 0.05115057 -0.014760722 0.01456311 -0.023394406 0.005861292 -0.09989182 0.19483517
0.107342884 0.012099601 -0.16046636 4.3936074e-05 0.7252575 0.18725349 -0.11344574 -0.0918547
-0.18063931 0.04748657 0.16963445 -0.07160679 0.048784245 0.04716329 0.137933 -0.034025285
-0.060997467 0.0029263033 0.10533719 0.14170203 0.011831306 0.019165752 -0.23130333 -0.24110593
0.23354955 -0.021675976 -0.07533358 0.021115504 0.08405452 0.06057846 0.023411565 -0.20917101
0.22747645 0.10884864 0.044224024 -0.14463854 -0.052683637 0.14715144 -0.38922718 0.073169984
0.03674641 -0.27939242 -0.09847898 -0.42428005 0.057823814 -0.023905346 0.04628878 0.34746364
-0.028133186 0.11392328 0.040979106 -0.07372101 0.16814603 -0.1106921 0.07742937 -0.189861
-0.28026867 -0.06593251 0.012692275 -0.007204502 -0.022609234 -0.0147946505 0.10160597 0.00070328254
0.040920943 0.15338816 -0.04028717 -0.041203417 -0.17264737 0.037339844 -0.011769978 0.087155
0.13284856 -0.18618159 0.058488104 -0.44077405 0.40700403 -0.191489 -0.048960224 0.076457515
0.04738076 0.015643844 0.012891562 -0.026342843 -0.02220936 0.039021175 0.009275524 0.24131516
0.6566049 -0.3751516 -0.36570582 -0.012810134 -0.0056090476 -0.00054508215 -0.1271484 -0.058226228

fc1.bias f4 [256]
00000000: 7dc0 50be 5822 61bd 8345 cdbd 9a53 cb3c
00000010: ade7 44be 27e8 a3bc 43f3 74bc 92cb 803c
00000020: b253 c6be 98b4 aebe b07b 28bd 3105 79be
00000030: d54b 72be 2a64 8dbe 8142 b1bc d219 d7bd
00000040: b9c5 07be 7076 163d 1c7c e0bd 6b40 83bc
00000050: 91d8 fd3d 6f90 88be 87cf d03d 8c95 403d
00000060: 40f5 843d 328c 2cbe 87ae de3c 0570 acbc
00000070: 5029 8fbd d5f6 c7be 20f1 71be aea2 55be
00000080: 5400 13bd f6c3 e4bd d0de d3bc eaa3 acbe
00000090: 309b b7bd 8516 b9bb 2b66 bcbe 652c bebe
000000a0: e722 3d3e 81e4 a6bd 8efd 0bbe 880a 5ebd
000000b0: 0a94 19be 3302 83be b32e d2be 7db1 44be
000000c0: 07c9 a8bd bdd5 c0be ed7c 42be 3f05 8cbd
000000d0: 3cc0 bdbd d6e4 20be f4df 71bd f38f a9bd
000000e0: 06c1 7cbe 14bc 86be 9b46 ca3d 0f37 45be
000000f0: c903 b7bb aa72 75be 2a80 8cbe 1ff5 1cbd
00000100: 4129 72bd fa78 28be 4b07 ccbc 2327 953d
00000110: 2504 433e 14ab a63c 2e90 b7be 845a 8abe
00000120: 2ef3 78be 0ef4 01be f23e 39be ac2e 1b3e
00000130: 2636 513d cec6 c9be 23e6 883c aa28 983d
00000140: 35e9 293e 6569 b0bd 7e14 c33c c60c 62bc
00000150: b4e4 5ebe 3854 0fbe 958f 92bd 9616 25be
00000160: b435 78be 6dbe 96bc f62c 1f3e 8c0a 8dbd
00000170: 3dd0 f8be 32a7 51be e328 c83d b914 19be
00000180: e30f 5e3e 8948 5cbe b8fc fbbe 9d7d c8bc
00000190: c55b 943d cfe7 5ebe f8da 88be c12b 1cbe
000001a0: b868 0cbd 0b26 03be 43e3 bfbd 2bff 783e
000001b0: 343f 30be 8dfd 17bd 37f3 35be 86e7 dc3d
000001c0: c67e 8ebd fd61 86bd 09d6 25be c3fc 19bc
000001d0: e85d adbe 561d 26be e46f 0ebe 82c5 653e
000001e0: c686 e4bd cbd0 b2be 8036 47be ff13 643c
000001f0: 0862 dfbc 41ef b0be 3e4d 64bd 67fe 43bd
00000200: fb0d a2be fffd adbe f3d6 b8be eb76 c93d
00000210: c2cf 92be 302c 73be 0a96 43be 2544 6dbe
00000220: 4aec 743d 42aa 533d 1968 b1bd 3a80 0fbe
00000230: 778c fbbd 9fe9 81be 6ebf 69bc 9ba9 31be
00000240: c56a d8be 634f a13d 6ad5 b7bd 24e4 34bd
00000250: 9ace 71be 57da 85be 7f92 0bbe 4121 5fbe
00000260: 7e44 7dbc c7d4 263e 96e1 49be 4821 fabd
00000270: d1b7 533d 4458 2dbd 7445 55be ca33 77be
00000280: 1537 d93d 8057 6bbd 85d8 7bbe f276 08be
00000290: f6a4 c8bd 0793 90bd 548b ff3d 8054 44be
000002a0: 07ca 54bd 11c2 f23d e037 72bd 4c20 c23d
000002b0: 5fca a43d 0cc7 77be 6580 6dbc 2d28 90be
000002c0: 14c6 bbbc 00f7 babd b828 ec3d 8ab8 313d
000002d0: d173 99bd f262 1abe 9141 d1bd 4962 15be
000002e0: d732 4cbe 852d 66be 92de e5ba 595f 09be
000002f0: 1be4 8d3b d219 113e da63 453d cd13 603c
00000300: 7d15 043e f0f4 d7bd 6001 76be 5741 96be
00000310: 1e03 93be 1c62 43bd 4224 b93b 0d14 d1be
00000320: d128 33be 200a 403e 4541 653d 7d53 63be
00000330: 17e9 81be 866b 26bd 9f21 a1be 69c2 f5bd
00000340: 5c15 703c 9069 65be 9831 12be 54c0 75be
00000350: d733 e2bd fce4 8fbe 8e50 763d 2ad2 efbd
00000360: 0c2c 18bc 172d 92be 0b6f 9cbe 8353 173d
00000370: a20c 30be 4095 afbd be7e 32be c324 99be
00000380: 55e7 38be 0467 163e 7884 b2be 6025 d3be
00000390: 1d0a a6bc eb53 97be 4f40 75be aae7 8c3d
000003a0: 1a21 293d c5f9 a9bd f0c7 efbb 6c6a 2b3d
000003b0: ef9a dbbe 05fd ebbd 721c 5bbe a5ff c63d
000003c0: 0c5e 90be de37 05be e497 68be 4c7d 4ebe
000003d0: 5f1b 8ebd 7f27 4dbe 1135 43bc e83e d3bd
000003e0: 7ab2 bcbe 14eb d8be 4d9c b13c 7049 99be
000003f0: 525c 93be 26c6 e3bd 9226 143c 2528 2ebc
-0.20385928 -0.054964393 -0.10023024 0.024820138 -0.19229002 -0.02000816 -0.014950576 0.01572207
-0.3873573 -0.34122157 -0.041133583 -0.24318387 -0.2366174 -0.27615482 -0.021638157 -0.10502972
-0.13259019 0.036734045 -0.10961172 -0.016021928 0.123948224 -0.26672694 0.10195833 0.04701762
0.0649209 -0.16850355 0.02718283 -0.021049509 -0.069903016 -0.39055505 -0.23627138 -0.20862839
-0.035888985 -0.11170189 -0.025863081 -0.33718807 -0.089651465 -0.0056484365 -0.36796698 -0.37143245
0.18470345 -0.081490524 -0.13670942 -0.054209262 -0.14997879 -0.25587615 -0.41051254 -0.19208331
-0.08241468 -0.3766307 -0.18992968 -0.06836938 -0.092651814 -0.15712294 -0.05905147 -0.08279409
-0.24683008 -0.26315367 0.09876748 -0.19259284 -0.005585168 -0.23969522 -0.2744153 -0.038319703
-0.059121374 -0.16452399 -0.024905821 0.07282855 0.1904455 0.020345248 -0.35852188 -0.27022183
-0.24311516 -0.12690756 -0.18090418 0.15154523 0.05107703 -0.39409488 0.0167113 0.07429631
0.16592868 -0.086138524 0.023813482 -0.013796991 -0.21766931 -0.1399697 -0.07156292 -0.16121897
-0.24239236 -0.018401349 0.15544495 -0.06886777 -0.48596373 -0.20473936 0.097734235 -0.14949311
0.21685748 -0.21512045 -0.49216247 -0.02447396 0.07244066 -0.21768115 -0.2672956 -0.15251066
-0.034279555 -0.12807481 -0.093695186 0.24316089 -0.1721161 -0.03710704 -0.1776856 0.10786347
-0.06957774 -0.065616585 -0.16194929 -0.009398642 -0.33860707 -0.16222128 -0.1390987 0.22438625
-0.111585185 -0.3492492 -0.19454384 0.013920783 -0.027268425 -0.34557536 -0.055737726 -0.04785004
-0.3165129 -0.33982846 -0.36101493 0.09837135 -0.28674132 -0.23747325 -0.19100204 -0.23170526
0.059795655 0.051676042 -0.08662433 -0.14013758 -0.12282651 -0.2537355 -0.014266832 -0.17349856
-0.4226896 0.0787647 -0.089762524 -0.044162884 -0.23613968 -0.26143143 -0.13630103 -0.21790029
-0.015458224 0.16292106 -0.1971496 -0.12213379 0.051688973 -0.042320505 -0.20827276 -0.2414085
0.10606209 -0.057456493 -0.24594314 -0.13326624 -0.09797089 -0.07059293 0.124777466 -0.19172859
-0.05195048 0.118534215 -0.059135318 0.094788164 0.08046412 -0.24197024 -0.014495944 -0.28155652
-0.0229216 -0.09129143 0.11531204 0.04338888 -0.07492793 -0.15076807 -0.10217584 -0.14588274
-0.19941269 -0.22478302 -0.0017537645 -0.13415278 0.004330171 0.14170006 0.04819093 0.013676596
0.12898822 -0.10544765 -0.24023962 -0.29346725 -0.28713316 -0.047700986 0.005650074 -0.4083561
-0.17496039 0.18753862 0.05597045 -0.22199817 -0.25373146 -0.040629886 -0.31470963 -0.119999714
0.01465353 -0.2240355 -0.14276731 -0.23999149 -0.11045044 -0.2810439 0.060135417 -0.117100075
-0.009287845 -0.28550026 -0.3055347 0.036944877 -0.17192319 -0.08573389 -0.17431161 -0.2991086
-0.18056996 0.14687735 -0.3486669 -0.41239452 -0.020268494 -0.29556212 -0.23950313 0.06880124
0.041291334 -0.08299593 -0.0073175356 0.04184954 -0.42891642 -0.11522869 -0.2139757 0.09716729
-0.28196752 -0.13009593 -0.22714192 -0.20164984 -0.06938814 -0.20034598 -0.0119145075 -0.10314733
-0.36854917 -0.4236685 0.021680975 -0.2993884 -0.28781372 -0.11121778 0.009042399 -0.010629688

bn1.weight f4 [256]
00000000: f14f 933e 9c50 b93e 1d62 a83e 7aa4 923e
00000010: 6cfe 3b3f 1fb3 1b3f 07e5 c03e 07c2 de3e
00000020: 550a 393f 5a6c 5a3e 15ec 8a3f 070e b63e
00000030: a015 9f3e 3df4 e83e da2c 923e 30a8 133f
00000040: 785f 4d3f c6f7 ca3e 3c7d 853e 141a 033f
00000050: 1e3f 9d3e fb2e d23e 35fc 3d3f 7dce c93e
00000060: 0017 b23e d6ca a53e 2087 f33e 2a68 873e
00000070: 17dc f63e 182f bf3e 089d 1c3f 0f42 053f
00000080: 3b46 c43e 8b93 103f 1055 a73e 2223 9f3e
00000090: 0ce1 ae3d 24bb f23e e219 003f dc4d 823e
000000a0: 7382 013f 781a 8c3e 3a46 003f ba17 653e
000000b0: bdc3 cf3e 768a c13e e6e4 cb3e fdff 243f
000000c0: 5849 bd3e eaa8 2d3e defc 383e 6bb4 dc3e
000000d0: c807 ad3e 2ebf 523f 6f2d 933e ed96 db3e
000000e0: b9b4 ff3e e067 213e b8da 493e 1c96 033f
000000f0: fc94 2f3f 97d0 f13e af65 8c3e 23ff 123e
00000100: 697a 9b3e 9360 093f 1bed ec3e 9792 133f
00000110: ef10 293f 1c10 2a3f dc3e 713e b3aa c53e
00000120: 98dd bf3e 1184 a43e 2958 cd3e 07ea ae3e
00000130: c721 473f 1e9c d43e 906e b23d 6553 0f3f
00000140: 0570 963e e9e4 c83e 6a1f 5e3f f0d9 e23e
00000150: 9491 2f3f 810e 6c3e 0fe0 e23e 21db 303f
00000160: 9a7e f63e a5d2 193f 2205 f53e 6046 3b3e
00000170: a3a1 ae3d 73f5 e23e b416 5c3f ab7f 3d3f
00000180: 5232 de3e 7e6b 863e 3d63 d93e ec45 8f3e
00000190: 0d3d e03e 4bac fa3e 2fac 493f 263c b33e
000001a0: 9d2f 623f 7371 9d3e 4008 0c3f 43cb 323f
000001b0: a4e4 4c3f bd74 6a3e 4e3e b03e d5ce e83e
000001c0: d40d cc3e c244 ec3e be21 973e 66e0 b53e
000001d0: 8f3b 133f 04fa 053f 949f 4e3f fb13 da3e
000001e0: 9c0e 083f 9dff b53e 3ddd 013f a68e 273f
000001f0: a8b7 083f c860 c53e 4a7c e13e 165d e03e
00000200: 7c8b 013f ce6a fe3e 91a8 dd3e 4793 ca3e
00000210: 1b0a 773e c6fd d03e af39 3e3e ba85 303f
00000220: 6e92 b3bd fb08 e63e e156 013f 6a62 043f
00000230: b0d3 113f 8ac6 8f3e 7417 8b3e 3263 a93e
00000240: b6b4 903e 58f9 f63e 5cf0 f33e 49b8 023f
00000250: 9092 d93e ca9f e63e 77ef 863e 76d5 f73e
00000260: db60 0d3f 0376 a83e 584c e33e 047f fc3e
00000270: 2e23 0b3f f1d7 0f3e ef8f 253f dc8b bf3e
00000280: 2a88 2b3f 93ef a03e 8be6 3c3f 2e89 d43e
00000290: 1ace 003f 6b5c 583e 34b3 b7bc 17d2 d23e
000002a0: d642 aa3e 6519 ed3e dfe0 353f 5b26 233e
000002b0: 59f1 303f b671 bc3e a840 973e df67 1c3f
000002c0: 2e15 f73e ec3f bc3e e975 0b3f f381 133f
000002d0: 2fa6 233f 9967 a03e f591 9b3e 18c6 8d3e
000002e0: 3f07 843f 8dc6 303f 9209 c33e 0117 243f
000002f0: 0b1e 3f3f 465b c23e 4880 d73e ec60 cf3e
00000300: e6aa 133f 961c e03d 6cc4 1d3f 1445 cd3e
00000310: ef6e 653e 48c1 1b3f edbe 243e bca5 333e
00000320: 3eae 383f 2e65 123f 4889 0d3f d759 e13e
00000330: 5e5e e73e 6d66 e83e e8e6 863e bac2 e03e
00000340: 64bc a03e b0ab cd3e 8b7f 023f ccd9 e03e
00000350: 3787 0c3f 65ac d23e fec5 283f 255d e93e
00000360: c4f7 dc3e 8564 293f fd56 b33e 0208 093f
00000370: 37a5 9a3e 352e f13e da05 a23e ddec ee3e
00000380: f4a2 213f 84a2 ac3e da38 8a3e 0e2f d63e
00000390: 84ef 443f 3547 353f 0001 a73e cc22 9b3e
000003a0: cb25 0e3f c6aa c13e 55a5 4f3e 9ac4 0a3f
000003b0: 1828 313f a99b 493f 5846 683e 4769 153f
000003c0: bb81 b63e a0e1 973e 4ec8 3b3f 24d1 693e
000003d0: c7c0 1c3f 7a86 b83e d106 2d3f 1469 183f
000003e0: e5c3 063f 0a56 1e3f b010 a83e 7a18 233f
000003f0: b421 313f d6ad c73e 4adb e53e 71b8 fe3e
0.28771928 0.36194313 0.32887354 0.2864111 0.7343509 0.6082019 0.37674734 0.43507406
0.7228139 0.21330395 1.0853297 0.35557577 0.31071186 0.4549884 0.28549844 0.5767851
0.802238 0.3964216 0.2607211 0.5121167 0.30712217 0.41051468 0.7421296 0.3941535
0.34783173 0.32381314 0.4756403 0.26446658 0.4821479 0.37340617 0.6117711 0.5205392
0.38334832 0.5647513 0.32682085 0.31081492 0.08539018 0.47408402 0.50039494 0.25450027
0.50589675 0.27363944 0.5010716 0.22372332 0.40579024 0.3780095 0.39823073 0.6445311
0.3697002 0.16958967 0.18065211 0.43106398 0.33795 0.8232297 0.287456 0.42888585
0.49942568 0.15762281 0.19712341 0.51400924 0.6858671 0.47229454 0.27421328 0.1435514
0.3036683 0.53662986 0.46274647 0.57645553 0.66041464 0.6643083 0.23559135 0.38606796
0.3747375 0.3213201 0.40106323 0.34162924 0.77785915 0.41525358 0.087124944 0.55986625
0.2938234 0.39237145 0.86766684 0.44306898 0.6858151 0.23052408 0.44311568 0.69084364
0.48143464 0.60087043 0.4785548 0.18288565 0.085269235 0.44327888 0.8597214 0.7402293
0.43397766 0.26253885 0.42458525 0.27983034 0.43796578 0.48959574 0.78778356 0.35006827
0.883539 0.30750617 0.5470009 0.698414 0.8003638 0.22896095 0.34422535 0.454703
0.398543 0.46146208 0.2951793 0.35522765 0.57512754 0.5233462 0.80712247 0.4259337
0.5314729 0.3554658 0.5072821 0.6545204 0.5340524 0.385504 0.44040138 0.4382102
0.5060346 0.4969086 0.43292668 0.3956549 0.24124949 0.40818614 0.18576692 0.6895405
-0.087681636 0.44928727 0.5052319 0.5171267 0.56963634 0.2808116 0.2716633 0.33083493
0.28262872 0.4823711 0.47644317 0.51062447 0.4249463 0.45043784 0.26354572 0.48405045
0.55225915 0.32902536 0.44394183 0.49315655 0.54350555 0.14047219 0.6467275 0.37411392
0.67004645 0.3143278 0.7378928 0.4151091 0.50314486 0.21129005 -0.022424318 0.4117591
0.33254117 0.46308437 0.7104625 0.159326 0.6911827 0.36805505 0.29541516 0.61095995
0.48258346 0.3676752 0.5447679 0.5762016 0.6392545 0.3132904 0.30384794 0.27690196
1.0314711 0.69052964 0.3809324 0.640976 0.74655217 0.3796026 0.42090058 0.40503633
0.57682645 0.10942952 0.6162784 0.40091765 0.22405599 0.608418 0.16088457 0.17543691
0.7214087 0.5718564 0.552876 0.44013855 0.45189184 0.45390645 0.26348042 0.43898565
0.3139373 0.4017005 0.50975865 0.43916166 0.5489382 0.41147152 0.6592711 0.45578876
0.4315778 0.66169006 0.35027304 0.53527844 0.30204174 0.47105566 0.3164509 0.46665087
0.6313927 0.3371774 0.269965 0.41832775 0.7692797 0.7081178 0.3261795 0.30299985
0.5552642 0.37825602 0.20277913 0.5420624 0.69201803 0.78753144 0.22683084 0.58363765
0.35645851 0.29664326 0.73352516 0.22833687 0.61231655 0.36040097 0.67588526 0.59535336
0.5264266 0.61850035 0.32825232 0.63709223 0.6919205 0.38999814 0.44893867 0.49750093

bn1.bias f4 [256]
00000000: 8b9f 3f3e 74ce 183e e702 5cbd 5b67 97bd
00000010: d7b5 3f3e f18d b73d df39 d2bd 76c8 8b3d
00000020: af32 543e e102 19be adb9 803e 121f 3b3e
00000030: c8d1 e13d 0f1e 853d 23ff 993d a52d e33d
00000040: b59e e23d de57 ddbc 8614 debd 0b10 b73d
00000050: 5351 823d 2f9d 35bd 24ad 573d 81a2 723d
00000060: 0a0a 0c3e e594 7e3d 9639 923d daf7 b53d
00000070: e32c 0e3e 1ff0 b23d bae2 f5bd 8657 1e3e
00000080: 9fde c33d 965b f83d be06 583d 7e66 6e3d
00000090: c64e 783e 13a3 fb3d 6a4d b7bc 43f1 9b3d
000000a0: 2245 c23d a5db cb3d 9e13 2a3e 3e73 96bc
000000b0: ab3e f63d c1f3 303e 0775 a73d ad17 3ebd
000000c0: ac5f f93c a994 433e 9211 9fbd 86bb 893d
000000d0: 5d6c 553e 89b7 363e b343 593e 720a 413d
000000e0: d0d5 013e 63bf 4bbe bb2f 3e3e e0cc 5b3e
000000f0: a2d5 6a3d 1d0a 1a3c 13d9 2f3e aa66 7c3e
00000100: 541b 973d 8438 ef3d f1c2 893d 2384 9d3d
00000110: c173 d23c ea6e e93d 889f 353e 04c2 24bc
00000120: 084b f3bd db1a b93d a213 9c3d 98eb c63c
00000130: 5ddd e53d e31f 133d 36fc 843e 793e 5f3e
00000140: caa1 163e 70ec 943d 16a8 003e 406c 7b3c
00000150: d251 5f3e 96c9 183e 58d8 313e 727e f23d
00000160: dc19 ef3d 5a51 f93d 4c6a 03be 7460 61be
00000170: e68e 633e 9421 563c 3849 c63d abe5 273e
00000180: 896d 23be 2717 193e f54d b43d f46d 433e
00000190: 1e1b 4f3e 97f2 093e bc66 5d3e c6e5 dc3c
000001a0: 8966 5e3d 5d53 923d 2218 e63d e48f 633e
000001b0: 01a1 d53d 1ffa 9f3d 5ce0 3cbc aeb8 e73d
000001c0: 9a75 8ebd 4aea b03c 3e87 e33d 696a 1a3d
000001d0: 4deb 1e3e cbac 913d 8652 363e 45a0 b13d
000001e0: 5007 223c 49cf 193e 5244 da3d c076 ab3d
000001f0: 8fba 04bd f635 f13d 3f8e 213d 3b70 093e
00000200: 54de 353e 919a 2d3e d591 3c3d 7d4a 0a3e
00000210: 80be 66bd 0b00 553e 9e90 60bd 3023 803e
00000220: 349e 33be 02ce 593d 6fc8 0b3e 30ec d43d
00000230: a53c cc3d 90ad a13d 4259 263e fd34 c23d
00000240: bab0 b53d 8baf 423e ef2e 77bd ebf7 613e
00000250: e672 9b3d 381a 36bd 4049 563e 24d6 873c
00000260: f6a6 7f3d fddb 1dbc 8537 6a3e ebdb f03d
00000270: 543e 243e d96e 82be baad 763d 8a3c 763d
00000280: 32e8 233e 4cdf 05bc 4b34 083e 4b67 233c
00000290: 5dab 5b3d 0cdc 233e 666b 80be 7294 9b3d
000002a0: 5481 ae3d 7426 073d 0ce0 053e 4ca0 5cbe
000002b0: 2392 213d 939d d73d 997f 1cbd 6568 2c3e
000002c0: eaf6 103e 6ba5 45bd 7a8a e53c 8a8b 1d3e
000002d0: 8cd4 2c3e 0ca9 ff3d 68c8 e2bc 5b67 bd3d
000002e0: 4dec 183e 7b6f 8b3c ce47 0c3e 5838 043d
000002f0: fe8d 923d 7523 5e3e 334f 3e3e 2817 46bd
00000300: 537d b53d 9b5e a5be 6497 f23d 4a6e ac3d
00000310: 6dca 3a3e 2b17 ba3d f8c9 45be 9229 49be
00000320: 9c60 393e 695f e23d bd14 e43c ab04 6f3c
00000330: 63b2 7e3d c095 243c f529 debd d7a0 9f3d
00000340: 111a 2abe 3cce 9f3d b152 343e a5d7 1c3e
00000350: 6f4f 17bd 406d 743e 1a8a 133e e766 b83d
00000360: 518c b83d 8bb0 543e 5954 fe3c bf46 0dbd
00000370: bfdd a83d 03dc db3d 9e97 6d3e 3314 963d
00000380: 8991 5f3e 5b4e 0a3d 65b9 4c3e 67ae 343e
00000390: 782b 843b 9ecb 343d 6eb6 aa3d 1e0d 813d
000003a0: 486b db3d cf8d eebd 1b17 2e3e 85ce 1d3e
000003b0: 1ff6 b53d 5bbd d13d ca4a 4d3e 940b 0e3e
000003c0: 97ce 013e bab1 de3d 07c4 dd3d d512 f43d
000003d0: faeb 583d a5aa 163d 630c 363e 5668 963d
000003e0: 11d7 1e3e 2fbc 213e eb28 b33c 7d59 063e
000003f0: 4208 133e ba74 76bc edfc ac3d db52 483e
0.18713205 0.14922506 -0.053713705 -0.0739276 0.1872171 0.0896262 -0.10264944 0.06825344
0.2072246 -0.14942504 0.2514166 0.18273571 0.11026341 0.06499874 0.075193666 0.110926904
0.11065427 -0.027019437 -0.10843758 0.08938607 0.063631676 -0.044339355 0.052655354 0.059237007
0.13675705 0.062153716 0.0713989 0.088851646 0.1388431 0.08737206 -0.12006135 0.15463075
0.09563946 0.12126844 0.052740805 0.058203213 0.242488 0.12286963 -0.022375781 0.076143764
0.09485842 0.09954003 0.16609046 -0.018365499 0.12023672 0.17280485 0.08176618 -0.046409298
0.030441128 0.19099678 -0.07767023 0.067252204 0.20842119 0.1784345 0.21217231 0.047129102
0.12679219 -0.19897227 0.18572895 0.21464872 0.057332642 0.009401825 0.17172651 0.24648538
0.07378259 0.116807014 0.06726635 0.07691219 0.025689961 0.11398108 0.17736638 -0.010056023
-0.118795455 0.090383254 0.07620932 0.024282262 0.11223862 0.03591908 0.25973672 0.21801175
0.14710155 0.072716594 0.1256412 0.015345633 0.21808556 0.14920649 0.17367685 0.11840524
0.11674854 0.1217372 -0.12833518 -0.2200945 0.2222248 0.013069529 0.09681934 0.16396205
-0.15959753 0.14950238 0.088039316 0.19084913 0.20225188 0.13471447 0.21621221 0.026965033
0.054297004 0.071448065 0.11235072 0.22222859 0.104311 0.07811379 -0.011528101 0.11314522
-0.069560245 0.021596093 0.1110978 0.037699137 0.15519448 0.07113036 0.17804918 0.08673147
0.009889439 0.1502048 0.10657562 0.08372259 -0.03240448 0.1177787 0.039442297 0.13421719
0.17760593 0.16953494 0.046037514 0.13504978 -0.05633402 0.20800798 -0.054825418 0.25026846
-0.17540818 0.05317498 0.13650678 0.10396612 0.099725045 0.078944325 0.16244987 0.09482763
0.088715985 0.19012277 -0.060347494 0.2206723 0.075902745 -0.044458598 0.2092638 0.016581602
0.062415086 -0.009634969 0.22872742 0.11760696 0.16039401 -0.25475195 0.060224272 0.06011633
0.16006544 -0.008170914 0.13301198 0.009973357 0.05363022 0.1600191 -0.25081939 0.07596673
0.08520761 0.032995656 0.13073748 -0.21545523 0.039446007 0.10528102 -0.038207624 0.16836698
0.1415669 -0.048253458 0.028020132 0.15385261 0.16877955 0.12483415 -0.027683452 0.09248229
0.14933892 0.017020931 0.13699266 0.032280296 0.07155989 0.21693213 0.185849 -0.048361927
0.08861794 -0.3229874 0.11845282 0.084194735 0.18241282 0.0908645 -0.19315326 -0.19644764
0.1810326 0.11053354 0.02784192 0.014588515 0.06218184 0.010045469 -0.108478464 0.0779435
-0.16611506 0.07803008 0.1760967 0.15316637 -0.03694099 0.238698 0.1440815 0.09004002
0.09011138 0.20770471 0.03104608 -0.034491297 0.0824542 0.10735323 0.23202369 0.073280714
0.21832861 0.03376613 0.19992597 0.17644654 0.004033502 0.044139497 0.08335577 0.0630133
0.10713822 -0.116481416 0.17001002 0.15410812 0.088848345 0.10241195 0.20048061 0.13871604
0.12676464 0.108737424 0.10828405 0.119176544 0.05295942 0.036783833 0.17778163 0.07344119
0.15511729 0.15794443 0.021870097 0.13120075 0.14358619 -0.015042478 0.08446679 0.19562857

bn1.running_mean f4 [256]
00000000: 6dfb 243e c7a8 553e b1ab a33e 5870 683e
00000010: 6261 0e3e f363 363e f5d1 d73d 9353 073e
00000020: 9c41 d03e 7b12 253e 15a7 463e 70f5 5d3d
00000030: 1bbf b43d 01f3 253e 8a12 e33d fb97 4a3e
00000040: 2cc9 7e3e eefa c53d 20d4 b33e 0610 bc3e
00000050: d6ba c73e 8dfb f53e 2b50 4e3e 3f82 433e
00000060: f302 1b3e edae 563e 07d9 843e 0c81 993d
00000070: 94b7 813d 0949 823d bfa3 b53d aec8 d03e
00000080: 7e20 bd3d 913d 2e3e 05d2 813e 3a5c 753e
00000090: f6cb 953d da06 103e 830d c23d e6fe ac3d
000000a0: dd5f 713e 34f3 0f3e b6c4 513e 30d6 713e
000000b0: 221d 103e 9cd3 9f3e 0a1a 033e 0d07 203e
000000c0: 82d7 bd3e 40d3 163d 335f eb3e 19a4 3d3e
000000d0: 05da 8d3e 2714 4c3e 92a3 4d3e 363d 7c3e
000000e0: 8194 a43e e87d fb3d 54fc 343f f625 0c3e
000000f0: b5f2 e83d 27f7 0c3e 86a7 a63e 2382 e43e
00000100: d18e 353e bfd5 833d 0586 9e3e fccb 063f
00000110: 65f5 183e 44ce a63d 231b a63d f6f5 863e
00000120: 7bba 1e3e e128 933e 935e ac3d 2277 f93e
00000130: 5105 bc3e 0a62 c83e d65a da3e adda d23e
00000140: 1d9e da3e c81f 5b3e a12c 623e f609 e43d
00000150: e994 443e 0921 ee3d 1d81 993d 53c5 a43d
00000160: a643 943e 9840 373e 43ca df3e a070 d83e
00000170: f71f d83c 4f1d 883e 1652 cb3e fc6d 6e3e
00000180: a6d0 413f e67f d03d 6beb 433d bec9 9e3d
00000190: 5fb7 783e d673 b73d 458c cd3d 8692 f53d
000001a0: d10e 1f3e 028f d93e 3012 f53d 1d5a 103f
000001b0: bbaf d13d 55c1 063e d63b 973d 7a28 a73e
000001c0: 4210 7e3d e086 533e 088a 9c3e 1e02 d23d
000001d0: 3909 f23e cdb3 583d c961 3a3e a0b5 063f
000001e0: b6fe 2b3e 99f8 5c3e ec8c 723e e4be 4c3e
000001f0: 0183 ef3d 86bd ba3d 75cf 5f3e 9020 673e
00000200: 797b 103e 4f07 193e 9e35 3a3e f219 863d
00000210: 9517 403e b886 6d3e 67e8 123e e828 803e
00000220: 091d 7f3f e823 a53e b53f 8d3e 61ed 493e
00000230: 2e5e 403e 5382 ca3e d816 bb3e 3078 4a3f
00000240: 0bfd 473d eb95 b33e ca7c 733e 5352 8d3e
00000250: 33a5 1a3e 90a4 4e3d 5624 a73e d7fe 523e
00000260: d697 353e 3bdb 493e 68f9 b43e 0be4 9f3d
00000270: 463a 433e 7a19 c33e 06b7 173e 2bd1 c63e
00000280: 79a7 bf3e e407 803e aa39 083e a185 833e
00000290: f674 e63d 9e8a 263f 915f b73f 8a6e 4c3e
000002a0: ec86 613d 6391 153e 3325 6e3e 4a46 a03e
000002b0: f87a 013f c460 083e 9c09 783e 7299 1b3d
000002c0: 6d13 223e 3f05 123e 6a41 413f 0fcd 803e
000002d0: 5552 373e 94c7 aa3d a480 0a3e d810 dd3d
000002e0: 894b 573e e659 053e 7563 de3d 928f b53d
000002f0: d506 b03d 6cd3 d03e 77ff dc3e 9db9 263e
00000300: d077 c63d 68d7 653e 34bc 303e 5942 703d
00000310: f9ab 793e e1d2 fb3d 0138 063e a395 233d
00000320: 04e3 723e 3591 8f3e 8f38 003f 662c d23d
00000330: 50b6 863d 9692 353e 8c9d 053e c904 8f3d
00000340: 5879 783e aa58 503d 26be f53d 5554 173e
00000350: 5ff1 193e 3b18 573e 9a68 db3e b699 083f
00000360: 4615 8b3d 75f4 103e 3245 233e f924 9a3e
00000370: ae76 183d 611d 573e 8e46 753e 77ff 5e3d
00000380: 839e fd3d 5684 2f3e 2809 443e 0d1b b23d
00000390: 0646 a23e 9a37 df3d cf5d e03d 5a9a 153e
000003a0: 77b5 0b3f 14ea 0f3e c589 203f 1167 743e
000003b0: d529 853e 9e29 3b3e 4a66 9d3d 2e32 573e
000003c0: 6b29 1f3e 84a5 6d3e 3442 063e eb7d 103e
000003d0: 67df 063e 8874 1a3d 814c cb3d 1cc2 0b3e
000003e0: ec94 263e f054 e83d ebe5 4b3e 8269 053e
000003f0: 2770 ae3d a6c7 313e 6cdc e83d e992 b13d
0.16111536 0.20865165 0.31966928 0.22699106 0.13904336 0.17811565 0.10538093 0.13215475
0.40675056 0.16120331 0.19399674 0.054189146 0.08825513 0.1620598 0.110875204 0.19784538
0.24881428 0.09667002 0.35122776 0.36730975 0.39009732 0.4804348 0.20147769 0.19092654
0.15137844 0.20965166 0.2594683 0.07495317 0.06333843 0.063615866 0.08869123 0.40778106
0.09234713 0.17015673 0.25355545 0.23960963 0.07314293 0.14065114 0.094752334 0.084470555
0.23571725 0.14057618 0.20485196 0.23616862 0.14073613 0.31216133 0.12802902 0.1562769
0.37078482 0.036822557 0.4597107 0.1851963 0.27705398 0.19929563 0.20081928 0.24632725
0.3214455 0.12279874 0.7069752 0.13686356 0.11374418 0.13766156 0.32549685 0.44630536
0.17730261 0.06437253 0.30961624 0.52655005 0.1493736 0.08144811 0.08110645 0.26359528
0.15500824 0.28742126 0.08416476 0.48723704 0.36722806 0.39137298 0.42647427 0.4118246
0.42698756 0.21398842 0.22087337 0.111347124 0.1919743 0.11627395 0.074953295 0.08045449
0.28957862 0.17895734 0.43709 0.42273426 0.02638243 0.2658486 0.39711064 0.23284143
0.75709 0.10180645 0.047831934 0.07753323 0.242887 0.08957641 0.1003652 0.11990838
0.15532996 0.4249192 0.119663596 0.563875 0.10238596 0.13159688 0.0738446 0.3264807
0.062027223 0.2065692 0.3057406 0.1025431 0.4727266 0.052905846 0.18201365 0.5262089
0.16796383 0.21579207 0.2368657 0.19994694 0.11694909 0.0911818 0.21856482 0.22571015
0.14109601 0.14944194 0.18184516 0.065479174 0.18758996 0.23195922 0.14346467 0.2503121
0.9965368 0.32253957 0.27587667 0.19719459 0.18785927 0.39552554 0.36540866 0.7908964
0.048825305 0.35075316 0.23778072 0.2760187 0.15102081 0.050449908 0.3264491 0.20605026
0.17733702 0.19712536 0.35346532 0.078071676 0.19065198 0.38105375 0.14815912 0.38831457
0.3743246 0.2500602 0.13303247 0.25687888 0.11252777 0.65055263 1.432604 0.19964042
0.055060312 0.14606242 0.23256378 0.31303626 0.5057826 0.13318163 0.24222416 0.037988134
0.15827723 0.14259814 0.7549044 0.25156447 0.17902501 0.08338848 0.13525635 0.10794228
0.21024908 0.13022575 0.10858814 0.088652745 0.08595053 0.40786302 0.43163654 0.16281743
0.09690821 0.22445452 0.17259294 0.058657024 0.24382009 0.12296081 0.13107301 0.039937627
0.23719412 0.28040472 0.500863 0.102623746 0.06577742 0.177317 0.1304838 0.069833346
0.24265039 0.050865807 0.119991586 0.14778264 0.15033482 0.21005337 0.42853242 0.53359544
0.06791167 0.14155753 0.15944365 0.30106333 0.037222557 0.21007301 0.23952696 0.05444285
0.12383749 0.17140326 0.19144118 0.08696566 0.3169405 0.10899277 0.109553926 0.14609662
0.5457377 0.14054137 0.6271022 0.23867442 0.26008478 0.18277594 0.07685526 0.21015236
0.15543143 0.2320767 0.13111192 0.14110534 0.13171159 0.03770879 0.09926701 0.13648266
0.16267747 0.113443255 0.19911925 0.1302853 0.08517485 0.17361316 0.11370167 0.08670599

bn1.running_var f4 [256]
00000000: 9a1a 1a3e 17b3 363e 0a3f 653e acd4 663e
00000010: 0e3e d73d b50c 353e bc08 083e 391a ef3d
00000020: 3642 063e c25c 233e bbd3 f63d 4f2c 3e3d
00000030: 1e71 8b3d 9c57 e33d 3536 1b3e 258f f43d
00000040: 76ee 133e 6d84 5d3d 999e b23e 5551 b03e
00000050: 6581 4e3e 7ffc d83e eb72 4c3e 5756 533e
00000060: 4a84 033e 77ef bd3d 262f 503e 9b1c b23d
00000070: e68d 7a3d 21ab 9a3d 0bf5 553d 29fd e03e
00000080: 1187 d33d 73f4 f13d 199b 583e dbca 6f3e
00000090: 34f5 3a3e d93a 093e 1853 623d b84a 683d
000000a0: eaf7 5b3e 7972 0e3e a92b 6a3e ca73 703e
000000b0: 5e2c ce3d c4fe 933e ae3d cc3d 82ad d33d
000000c0: f6b4 b03e 11d5 443d cb65 bf3e 7fc4 e13d
000000d0: 777c 543e 1a9c 0d3e 164f 4d3e 60cf 0f3e
000000e0: 9f98 a63e 657b 043e 4081 7b3f a354 bb3d
000000f0: ef70 8b3d 53fe eb3d 887d a63e 7a60 303f
00000100: 2bfa 073e dbd6 573d d183 a33e 60a4 943e
00000110: b98b 253e 574e 3e3d 8999 da3d f0e5 3a3e
00000120: 30ae b43d b5ed 763e 8654 a03d 844c f93e
00000130: 3401 643e cda4 b63e fbe1 1f3f a687 503e
00000140: f57b de3e 33a3 343e c087 153e 7fde ab3d
00000150: eec1 383e e351 d53d 14c0 a23d 8606 513d
00000160: 21e1 903e 01de 783d fb83 7c3e e027 d23e
00000170: 8885 2c3d 72ce d13d 3e03 983e 8910 633e
00000180: de4f ed3e 4446 f23d 5a8d bf3c dc82 0a3e
00000190: d51f 203e 0b05 6b3d 0773 833d 5e3c 4b3e
000001a0: c740 4b3e 7da4 023f be0a 933d 1ac8 a13e
000001b0: b2ba ec3d 3ab2 0e3e b6ba 5e3d 4856 463e
000001c0: 2adb d93c d701 273e 97a9 6d3e 3431 033e
000001d0: c546 d43e a0b0 143d 5555 e03d 2eb4 3c3f
000001e0: 7dc8 253e 14f3 203e c4df cf3d 7220 ec3d
000001f0: 7159 993d 0a65 b13d 4ec6 1c3e c5bb 8e3e
00000200: b71d 033e 3fb2 bb3d bfe3 e93d 2e94 a33d
00000210: 2944 583e af11 263e 6a01 ee3d 0d91 383e
00000220: 81ff ef3e 4179 963e eaa9 863e 2d6e 253e
00000230: 4551 303e fae5 e53e bdbf 803e b478 603f
00000240: c1b5 4b3d 027e 863e 888a 4b3e 3510 4f3e
00000250: 4fc9 343e b404 e63c e4b5 c03e 39dd 4f3e
00000260: a15e ed3d b88c 0b3e 4d0d 713e 6190 4b3d
00000270: ba5f 143e eb1b e93e 899a fe3d e6a1 c23e
00000280: 64f0 743e b612 573e 7353 a63d 367f 753e
00000290: 29b2 1b3e 0425 543f 0f50 d63f ea96 263e
000002a0: 836b 6c3d be94 003e 3f43 6e3e 3ff4 c33e
000002b0: 0aaf c33e 3be9 fa3d 1152 8c3e 61e8 a43c
000002c0: 1a92 533e e8f7 df3d 2e73 093f e754 8e3e
000002d0: 93c1 2a3e d78b 6f3d 12e5 533d 6196 d23d
000002e0: e4c1 053e 5bc9 b03d 184f 0b3e 12e8 923d
000002f0: d5b3 a73d 62c0 523e 781d d23e 62fc 093e
00000300: dfe2 d73d 9bec 913e 7b6e bd3d 6c2a bd3d
00000310: 25ea 553e 8177 9a3d aa3b 053e a37e 203d
00000320: ada8 713e 4137 163e 5f7b 1e3f 6fc8 ab3d
00000330: 12d2 383d da5a 7f3e bf34 0f3e b04a 8b3d
00000340: 3c42 3f3e 25f9 5f3d e293 f03d 463d 133e
00000350: 65bc eb3d 6b53 3c3e 5ed4 073f 8206 b03e
00000360: 9a4c 4d3d c3fe 143e 388c ee3d 16d6 973e
00000370: decc d23c 7594 2d3e 399a 133e 37c4 f63c
00000380: c5e0 a73d 5d69 3e3e 5b53 603e 42ac 803d
00000390: e1fb 723e ac8d 503d de5c ca3d cacc 133e
000003a0: 17fb 863e 6cf0 cd3d 6174 233f db0b 1b3e
000003b0: 1611 813e 4ff0 cb3d da3a 0e3e 8d10 1c3e
000003c0: bf80 053e b874 083e 3dbf a43d 7b99 c73d
000003d0: dbcc ac3d 8ad3 1d3d b50a 883d 612e d63d
000003e0: e278 0c3e 85da 8a3d 3e74 2e3e 2f0f c03d
000003f0: 001e 303d 501d 053e 8fab 8b3d 7612 a63d
0.1504921 0.17841755 0.22387329 0.22542065 0.10509883 0.17680629 0.13284582 0.116749234
0.13111195 0.15953353 0.12052103 0.046428975 0.06808685 0.111006945 0.15157397 0.11941365
0.14446434 0.05408137 0.34886625 0.3443705 0.20166548 0.4238014 0.19965713 0.20638405
0.12843433 0.0927419 0.20330486 0.08696862 0.06117048 0.075521715 0.052235644 0.43943146
0.10328496 0.11814203 0.21152915 0.23417227 0.182576 0.13401355 0.055255026 0.056711882
0.2148129 0.13910855 0.22868218 0.2348167 0.10067056 0.28905308 0.09972702 0.10335828
0.34513062 0.04805476 0.3738235 0.11023807 0.20750605 0.1382908 0.200497 0.14043951
0.32538316 0.12937696 0.98244095 0.091470025 0.0680865 0.11523118 0.32517648 0.6889721
0.13279025 0.052695137 0.31936505 0.29031658 0.16166581 0.04646143 0.10673816 0.18251777
0.08822286 0.24114116 0.078286216 0.4869119 0.22266084 0.35672608 0.62454194 0.20364246
0.43453947 0.1764038 0.14602566 0.08392047 0.18042728 0.10416009 0.07946792 0.05103161
0.2829676 0.060758594 0.24659722 0.41046047 0.042119533 0.102444544 0.29689974 0.22174276
0.46349996 0.11829808 0.023382831 0.13526481 0.15637143 0.057377856 0.06418424 0.19847247
0.1984893 0.5103224 0.07179783 0.31597978 0.11559047 0.13935176 0.05437728 0.19368851
0.026593763 0.16309296 0.23209225 0.12811738 0.41460243 0.036301255 0.10953776 0.7371243
0.16189761 0.15717727 0.10150102 0.11529626 0.07487763 0.0866185 0.15310022 0.27877632
0.12804304 0.09164857 0.11420392 0.079872474 0.21119751 0.16217683 0.116213635 0.18024082
0.46874622 0.29389384 0.2630151 0.1615531 0.17218502 0.4490202 0.25146285 0.8768418
0.04973388 0.2626801 0.19877064 0.20221026 0.17654918 0.028078414 0.37638772 0.20299233
0.11590315 0.13627899 0.2354023 0.049698237 0.14489642 0.45529112 0.12431819 0.38014144
0.23919827 0.21003231 0.081213854 0.23974308 0.15204681 0.8286898 1.6743182 0.16268507
0.05771972 0.1255674 0.2326784 0.38272282 0.38219482 0.122515164 0.27406362 0.020130338
0.20661202 0.10935956 0.53691375 0.2779915 0.16675405 0.05848297 0.05173213 0.10282589
0.13062245 0.086321555 0.1360439 0.0717317 0.08188597 0.205812 0.41038108 0.13475183
0.10541319 0.28500828 0.09249588 0.09236607 0.208901 0.07542325 0.13011041 0.03918327
0.23599501 0.14669515 0.61907 0.08387839 0.045122214 0.24937001 0.13984965 0.06801355
0.1867761 0.054680962 0.117469564 0.14378843 0.11510543 0.18391196 0.5305842 0.34379965
0.05012188 0.14550309 0.11647838 0.29655522 0.025732454 0.16951163 0.144143 0.03012286
0.08197168 0.1859488 0.21906798 0.062828556 0.23728897 0.05091636 0.09880994 0.1443359
0.2636344 0.100556225 0.63849455 0.15141241 0.25208348 0.099579446 0.13889638 0.15240689
0.13037394 0.13325775 0.08044288 0.09746071 0.084375106 0.038531817 0.06642667 0.10458065
0.13717988 0.067799605 0.1703653 0.09377896 0.04299736 0.12999463 0.068198316 0.0810899

fc2.weight f4 [256, 260]
00000000: 11d1 b23d 4207 b73d 465c 5fbe b21e 8cbd
00000010: 361d a9bd 66cc 41bc 3895 91bb a3e8 87be
00000020: 2d04 5dbb 5ba2 043e 2479 263e 50f5 e0be
00000030: 4718 5bbc c34a 1fbe f02a c5bd e897 e33d
00000040: 1fec 15bf 4bfe a3be c788 e4bc a65b fd3d
00000050: 2d64 f3bb f16b 78bd 0ca0 263d f9d1 853d
00000060: 43e9 13be e19b 46be 28d2 e33c 77ca e5bc
00000070: d50c 1a3e c9c9 a03d 01c3 b9bd 776b d93c
00000080: 20d9 22be 5ca0 053d 4e60 433d 259a 663d
00000090: 7c4c 21be 6b55 1abd c333 8abd 48a8 1fbe
000000a0: 64fd d43b f7d9 44be 43a2 5abe a1a2 323d
000000b0: 88d2 ef3d 73f9 d1bd 83c2 f53d 4b2e cabd
000000c0: 138f 84bc e133 55be 3b78 f53d b24b 8c3c
000000d0: 7956 a23d e647 2a3e b136 f4bd 8aa6 583e
000000e0: 0102 19be fd9c 0fbd 4746 523d bde0 0cbd
000000f0: 4e56 7cbe e89b b43b f2f8 4cbe 0f8d f4bd
00000100: 1cae 993d cae8 07bc 4d09 01be 171b 57bd
00000110: b964 433e 9332 1d3d 69cf 83be f470 343e
00000120: 3eea 273e 1622 f1bc 6ccf a53b bfaa 76be
00000130: 328f 973d b259 b1bc 649f d1bd f760 35bd
00000140: 0d2e f3bc aed6 d5be 21ac b5bd 6464 08be
00000150: e8fc 703c 970d 9ebd 8689 6cbe 475c c53d
00000160: 8b85 4f3d 0305 16bd 6fdd 943c 91e3 733d
00000170: 6437 59be a0e7 223e b173 393e df53 67be
00000180: f8e3 cabd 404a b8be 02d2 37bd e12d 1bbe
00000190: 1516 82bc dcff b93d 46c0 d13d a348 453c
000001a0: 924b 8b3c f141 143d d7f9 18bc 47e0 013e
000001b0: f9a5 ac3d 86d4 193e e104 033e c179 383d
000001c0: 6403 9e3d a3cf d23d 9f85 50bc 8705 403b
000001d0: 13b5 6abd 516d 0fbc 9e1e 463e 7856 9b3b
000001e0: 97a5 073e 2209 13be 1bf3 463e 840e a2be
000001f0: 3d3f 8abd 2270 9fbe 927c 4abe 7ac7 a1bd
00000200: 7537 543d 93be a63c 4161 f2bd 81ac a2bc
00000210: 6c49 41bd f0ac a2be 65c9 193e b784 b23d
00000220: b2fb fa3d 3602 a73c ee6d 1e3d 7029 8eba
00000230: acb6 38bc decf 38bd 67fd 363c de62 c9bd
00000240: a134 04be aeed 9bbd 111a ab3d 17ba 10bd
00000250: b8cf 103c 105e f33d 3356 23bd 8799 aabd
00000260: bbf6 bb3d ba0c 5cbd d489 f33d f969 3d3e
00000270: b588 60be 1851 763e 5569 573c 514e b93d
00000280: 7c84 253e 71b0 f9bc 3233 ff3d 7839 8cbd
00000290: 7124 a6bd 3026 b33d 6b80 123e 6938 9cbe
000002a0: 4bb4 523c a17c b3bd 3ca4 39bb 31f5 233e
000002b0: 867e 2fbd 2203 3c3d c731 b0bd 4d73 15bd
000002c0: 16d9 c63d cbf2 8dbc 6613 5b3d 5fdd 5abe
000002d0: 6e42 a1bd 2ccb a7be ebd4 9dbd e45a 09be
000002e0: 9dee 9e3d fd4d c8bd b9cb 9bbd a560 35bc
000002f0: 82a2 323e a3d0 d5bd 1d20 553c c002 e03c
00000300: 6148 03bc 39ea f03d fc8f fb3d 3c30 06be
00000310: 8aac 50bd a5d2 24be 49c8 16be 3439 1cbd
00000320: bc61 d9bc c140 50bd 3fb0 bc3d 56d8 de3b
00000330: 138a 243d e022 aabb ebc7 473d abfc d23d
00000340: e5bf 13be 2c19 95bd 311d b23c deba 13be
00000350: 2b67 0fbe edcc 863d bf0a 163d f9dc 46bd
00000360: 3d93 4cbe e61f 14be 02a9 5f3d 090a a13c
00000370: 5559 4e3d 99a1 63be e14a ccbe a93d 64be
00000380: df94 113e 6f66 ac3d e12e 21be 20ae 1c3e
00000390: 7b00 82bc 71a0 25be 84a6 453d 2194 10bd
000003a0: acba ca3d 1bdb 3f3d 7daa 01bd 9b48 9e3d
000003b0: f99d f5bd e8a5 853d 30c7 09be 957e 88bc
000003c0: 0ef1 ec3d 8246 fbbd 058e f039 9c2e 883d
000003d0: 817d ebbd f100 84bd a6c2 b9bd 1765 0bbe
000003e0: 7c3b e1bd 568c 583e f02f 0dbe 50e8 07bd
000003f0: bb0c 683d fcfe a1bd f056 0f3e 3192 533e
0.087312825 0.08936931 -0.21812543 -0.06841792 -0.08257525 -0.011828518 -0.004442837 -0.26544675
-0.0033724413 0.12952559 0.16257149 -0.4393716 -0.013372487 -0.15555863 -0.0962733 0.11112958
-0.5856342 -0.32029948 -0.027897252 0.12370996 -0.0074277134 -0.060649816 0.040679976 0.0653419
-0.14444451 -0.193954 0.027810171 -0.028050644 0.15043958 0.078509875 -0.09070397 0.026540501
-0.15903139 0.032623634 0.047699265 0.056299347 -0.15751833 -0.037679117 -0.06748154 -0.15591538
0.006499933 -0.19223772 -0.2135096 0.043612126 0.117100775 -0.10252657 0.11999991 -0.09872111
-0.016181504 -0.20820571 0.11985823 0.017125938 0.079266496 0.1662899 -0.11924494 0.2115728
-0.1494217 -0.035061825 0.051336553 -0.034394015 -0.24642298 0.0055117495 -0.2001684 -0.11940967
0.07503912 -0.008295247 -0.12601204 -0.05251607 0.19081391 0.03837831 -0.2574418 0.17621213
0.1639795 -0.029435199 0.005060127 -0.24088572 0.07400359 -0.021649215 -0.102354795 -0.044281926
-0.029685045 -0.4176535 -0.088707216 -0.13319546 0.014708735 -0.07717436 -0.23099336 0.09636741
0.050664466 -0.036625873 0.018171994 0.059543196 -0.21212536 0.1590867 0.18110539 -0.22590588
-0.09906763 -0.35994148 -0.044878013 -0.1515422 -0.01587967 0.090820044 0.102417514 0.012041244
0.017003808 0.0361957 -0.00933691 0.12683211 0.08430094 0.15022478 0.1279483 0.04503799
0.077154905 0.1029351 -0.01272717 0.002930017 -0.057301592 -0.00875409 0.19347617 0.0047405325
0.13246761 -0.14358953 0.19428675 -0.316517 -0.06750343 -0.31140238 -0.19774082 -0.07899375
0.0518107 0.020354545 -0.11834956 -0.019857647 -0.04718916 -0.31772566 0.15018232 0.087167196
0.12255038 0.020386796 0.038679056 -0.001084609 -0.011274021 -0.045120113 0.011168814 -0.098333105
-0.12910701 -0.07613693 0.08354581 -0.03533372 0.0088385865 0.118831754 -0.039877128 -0.08330064
0.091779195 -0.053723074 0.11891523 0.18497457 -0.2192715 0.24054372 0.013147672 0.09048141
0.1616382 -0.030479642 0.124609366 -0.06846899 -0.081124194 0.08747518 0.143068 -0.30511788
0.012860368 -0.087640055 -0.002832665 0.16011502 -0.04284527 0.045901425 -0.08603244 -0.036486913
0.097093746 -0.017327687 0.053485297 -0.21373509 -0.078739986 -0.32772195 -0.077066265 -0.13413578
0.077603556 -0.097805 -0.076072164 -0.011070405 0.17444804 -0.10440185 0.013008145 0.027345061
-0.008012862 0.117634244 0.12283322 -0.13104337 -0.050945796 -0.1609598 -0.1472484 -0.03814049
-0.026535861 -0.050843004 0.09213304 0.0068006916 0.04017074 -0.0051921457 0.04877464 0.10302099
-0.1442867 -0.07280192 0.021742435 -0.14426753 -0.14004199 0.06582055 0.036631342 -0.04855058
-0.19978042 -0.14465293 0.054604538 0.019658105 0.050378162 -0.22229613 -0.39900878 -0.22289146
0.14216946 0.08417975 -0.15740539 0.15300798 -0.01586937 -0.16174485 0.048254505 -0.035297517
0.09898886 0.046839815 -0.03165673 0.07728692 -0.119930215 0.06525785 -0.1345489 -0.016661922
0.11569415 -0.12269308 0.0004588218 0.06649515 -0.11498547 -0.06445492 -0.09070329 -0.13612781
-0.10997674 0.21147284 -0.13787818 -0.033180535 0.056652766 -0.079099625 0.13998008 0.20661236

fc2.bias f4 [256]
00000000: d119 0cbe 5cb2 4fbe fe42 62be 01ad bebb
00000010: 73d8 4bbd fce3 653d 1039 493d 4602 78be
00000020: c972 adba e0fb b7bd 7c29 53be 22ae 0a3d
00000030: a137 78be 708f 55be b9db 6dbe 7c5b b9bd
00000040: 310a cbbd 7f9e 64be b8d9 81bc 3e98 1abc
00000050: 8479 d2bd 1115 44be aae1 59be 26e8 d0bd
00000060: 5f2c d1bd 98ef 46be 7be7 3abe 0941 62bc
00000070: 6c7d a23d 46fc d9bd 2c2b a8bc fb8a cabd
00000080: 77f9 ff3d 45de 0ebe 2ebf 2dbe 471b 21be
00000090: 8248 debd 8135 163d 4708 2abe e2c6 75be
000000a0: 48cc 853d 1023 35be 63c7 36be bf6e efbd
000000b0: b62c 79be 4bd3 92bd 1566 433b 8969 87be
000000c0: 012b 13be f80c 24be ed12 37bd d5c2 17be
000000d0: 74a2 33be e70c 17be a623 41be 3e63 debc
000000e0: e0a8 67be 8e7e 24be f347 25be 6234 16be
000000f0: 7035 7abd 9251 9abd 422e 63bd fdcb 2fbe
00000100: 0f52 17be 9132 813d 072c 2dbe ee90 4cbe
00000110: b9d6 4cbe 69a8 f63d 8c0b 56be e7fb adbd
00000120: bdd6 a3bd 76a0 0dbe 7b87 06be 32f2 1d3e
00000130: 0541 d7bd 557d cabd 3790 3ebc 98cb 4bbd
00000140: d8a9 81bb 3878 06bd 16de b23c 776c 6abd
00000150: f8a0 46be bc93 253c 9d70 b43d 655d 99be
00000160: 898b 36be 4909 fabd f01f 22be f740 9dbc
00000170: dc33 1abe fcd9 42bd 5bdb 503e 04e4 b63c
00000180: da1e 0bbe b2cc 2dbe 496e 04be 2917 ebbd
00000190: 279a 40be 613e 15bd 604d 74bd 9cf5 4dbe
000001a0: 5211 42be 494f 8ebd 9354 4abc 5d15 39be
000001b0: 9e20 d6bc 4485 1fbe 0060 f0bd 5896 b1bd
000001c0: 89b8 17be e417 39be aee7 36bd c28a 1fbd
000001d0: 3814 90bc 88ea f0bd 0fd0 5e3e 5672 e3bd
000001e0: 9265 48be a126 5bbd 029f 33be d543 a9bd
000001f0: 9f2d f5bd be00 19be ae5d d3bd 748f ffbd
00000200: 5f01 33be aa69 23be 2140 01bd 12b3 8cbd
00000210: b366 1abe 0a4a 51be 2be6 6f3d 47d3 52be
00000220: a151 15be 221c f1bd da82 debd f302 2ebb
00000230: e506 1cbe d5bb 37be 3cb5 48be 153a ebbd
00000240: 7d98 c6bd bf83 57bd 6a77 ccbd 10ec b33c
00000250: c8fe a33e f7fe 38be e198 87bd 9367 3abe
00000260: 15f0 ddbd 8461 cfbd 9457 b5bd a1af 00bd
00000270: e4f5 97bd a11e 19be 7491 17be 8cbc ddbd
00000280: d788 a8bd fb7a 9bbd 13c5 c1bd 0586 1ebe
00000290: 39e7 febd a1c3 94bd 8c21 fcbd 75ef 3bbe
000002a0: 2c9d e9bd 7838 a1bd 61c7 39be 2b4c d1bd
000002b0: 4ec3 d6bd e1d7 f0bd 70c0 4f3c 9779 e0bd
000002c0: 003a 26be 20ad afbd ad86 96bd 5e2e 5cbd
000002d0: 370f 3dbe 5ae3 7cbe 2d13 1ebd 5f1c 5dbd
000002e0: ac21 36be 907d 083d bf09 04be b0ad 4abe
000002f0: 274f 18bd 4daf f5bd 4911 03be 92c5 5ebe
00000300: 9c6e dabd 8833 f6bd a0e9 8fbd f69c 2abe
00000310: 2e4a de3d 4bd6 9ebd e56c 80be 91ad 67bd
00000320: 4fb8 61be 88d1 14be 8a3d 62be afef 95bd
00000330: 6f24 2ebe 9b85 78bd 4e52 68be 2d04 99be
00000340: c1fd 10be 4a88 26be ebc3 01be cd1d 64be
00000350: 81f0 52be 99df 02be 7ee8 61bd c033 04be
00000360: b567 71be b8dd 11be 7f89 16be fa87 dcbd
00000370: 035a 58be 6a62 b2bd b006 1ebe 8101 36be
00000380: 943a 5cbe 91dd cebd f079 88bd ee0c 6ebc
00000390: 84a9 0cbe 33db 4cbe d9b0 14bd 5d36 54be
000003a0: 5772 47be bd20 01be 5d31 3fbe 0087 94bd
000003b0: b400 f2bc 10ec 07be 23d0 9bbd 34e3 aa3c
000003c0: f884 ccbd 4370 98bc 7f9d f9bd d14c 4fbe
000003d0: ebed 51be 606d 433c 1ed6 7abe 8922 87bd
000003e0: c04c 80be 8ba3 75be 0992 a33c b560 47be
000003f0: 7826 f0bd 4ef7 09be 1280 7bbd eff2 58be
-0.13681723 -0.20282882 -0.22095868 -0.0058189635 -0.04976697 0.056125626 0.049126685 -0.24219617
-0.0013233061 -0.08983588 -0.20621294 0.033857472 -0.2423997 -0.20855498 -0.23228349 -0.090506524
-0.09914053 -0.22326086 -0.015850887 -0.009435711 -0.102770835 -0.19148661 -0.2127749 -0.10200529
-0.10213541 -0.19427335 -0.18252365 -0.013809451 0.079340786 -0.106438205 -0.020528398 -0.0988979
0.124987535 -0.13951977 -0.1696746 -0.15733062 -0.108536735 0.03667212 -0.1660472 -0.24001649
0.06533104 -0.17689157 -0.17849497 -0.11691045 -0.24333462 -0.07169207 0.0029815484 -0.26447704
-0.14371873 -0.16020572 -0.044695783 -0.14820416 -0.1754244 -0.14751016 -0.18861255 -0.027146932
-0.22623014 -0.16063902 -0.16140728 -0.1466842 -0.06108612 -0.075350896 -0.055464037 -0.17167659
-0.14777397 0.06308473 -0.16911326 -0.19977161 -0.20003785 0.120438404 -0.20902842 -0.08495312
-0.079999425 -0.13830742 -0.13137619 0.15424421 -0.10510448 -0.098871864 -0.011631063 -0.04975471
-0.0039570145 -0.032829493 0.021834414 -0.057232346 -0.19397342 0.010106023 0.08810542 -0.29954067
-0.17826666 -0.12208802 -0.15832496 -0.019196017 -0.15058845 -0.047571167 0.20396177 0.022325523
-0.13585988 -0.16972616 -0.12932695 -0.11479027 -0.18808804 -0.036436442 -0.059644103 -0.20113224
-0.1895192 -0.06948716 -0.012349266 -0.18074556 -0.0261386 -0.1557818 -0.117370605 -0.08671254
-0.14816488 -0.1807552 -0.04465454 -0.03895069 -0.017587766 -0.11763483 0.21759056 -0.11105792
-0.19569996 -0.053503636 -0.17541125 -0.08264891 -0.11971592 -0.1494169 -0.10320602 -0.124785334
-0.17480992 -0.15958276 -0.0315553 -0.068700925 -0.15078239 -0.204384 0.058569115 -0.20588408
-0.1458192 -0.11772944 -0.10864802 -0.002655205 -0.15237005 -0.17942746 -0.19600385 -0.11485688
-0.096970536 -0.052615877 -0.09983714 0.02196315 0.3203032 -0.18066011 -0.06620956 -0.18203573
-0.10836808 -0.101260215 -0.08854595 -0.031417493 -0.07419947 -0.1495309 -0.1480158 -0.10826978
-0.08229225 -0.07591816 -0.09461417 -0.15480812 -0.12446446 -0.07263876 -0.12311086 -0.18353064
-0.11406931 -0.07872099 -0.18142463 -0.10219606 -0.1048647 -0.11759926 0.012680158 -0.109606914
-0.16233063 -0.08577943 -0.07349906 -0.053755157 -0.18462835 -0.24696103 -0.038592506 -0.053982135
-0.17786282 0.03332287 -0.12894343 -0.19792819 -0.03718486 -0.119963266 -0.12799563 -0.21755055
-0.10665628 -0.120215476 -0.07026982 -0.16661438 0.108539924 -0.07755717 -0.2508308 -0.05656201
-0.22042964 -0.14533055 -0.22093788 -0.07321107 -0.17006086 -0.06067429 -0.22687647 -0.29885998
-0.141593 -0.16262928 -0.12672393 -0.22276993 -0.20599557 -0.12780608 -0.055153362 -0.12910366
-0.23574717 -0.14244735 -0.14700888 -0.10768123 -0.21128087 -0.08710177 -0.15432239 -0.17774011
-0.21506721 -0.10100854 -0.06663883 -0.01452945 -0.1373654 -0.20005493 -0.036301468 -0.20723863
-0.19477211 -0.12610145 -0.18671174 -0.07252312 -0.02954135 -0.13273644 -0.07608058 0.020860292
-0.09986299 -0.018608218 -0.12188243 -0.20244147 -0.20500915 0.0119279325 -0.24495742 -0.06598384
-0.25058556 -0.23988168 0.019967096 -0.19470485 -0.11726087 -0.13473246 -0.061401434 -0.21186422
